…
I0307 14:52:37.600572 2997859264 net.cpp:294] The NetState phase (0) differed from the phase (1) specified by a rule in layer accuracy
I0307 14:52:37.600579 2997859264 net.cpp:51] Initializing net from parameters: 
name: "LeNet"
state {
  phase: TRAIN
  level: 0
  stage: ""
}
layer {
  name: "data"
  type: "Data"
  top: "data"
  top: "label"
  include {
    phase: TRAIN
  }
  transform_param {
    scale: 0.00390625
    mirror: false
    mean_file: "mean.binaryproto"
  }
  data_param {
    source: "train_lmdb"
    batch_size: 256
    backend: LMDB
  }
}
layer {
  name: "conv1"
  type: "Convolution"
  bottom: "data"
  top: "conv1"
  param {
    lr_mult: 1
  }
  param {
    lr_mult: 2
  }
  convolution_param {
    num_output: 20
    kernel_size: 5
    stride: 1
    weight_filler {
      type: "xavier"
    }
    bias_filler {
      type: "constant"
    }
  }
}
layer {
  name: "pool1"
  type: "Pooling"
  bottom: "conv1"
  top: "pool1"
  pooling_param {
    pool: MAX
    kernel_size: 2
    stride: 2
  }
}
layer {
  name: "conv2"
  type: "Convolution"
  bottom: "pool1"
  top: "conv2"
  param {
    lr_mult: 1
  }
  param {
    lr_mult: 2
  }
  convolution_param {
    num_output: 50
    kernel_size: 5
    stride: 1
    weight_filler {
      type: "xavier"
    }
    bias_filler {
      type: "constant"
    }
  }
}
layer {
  name: "pool2"
  type: "Pooling"
  bottom: "conv2"
  top: "pool2"
  pooling_param {
    pool: MAX
    kernel_size: 2
    stride: 2
  }
}
layer {
  name: "ip1"
  type: "InnerProduct"
  bottom: "pool2"
  top: "ip1"
  param {
    lr_mult: 1
  }
  param {
    lr_mult: 2
  }
  inner_product_param {
    num_output: 500
    weight_filler {
      type: "xavier"
    }
    bias_filler {
      type: "constant"
    }
  }
}
layer {
  name: "relu1"
  type: "ReLU"
  bottom: "ip1"
  top: "ip1"
}
layer {
  name: "drop1"
  type: "Dropout"
  bottom: "ip1"
  top: "ip1"
  dropout_param {
    dropout_ratio: 0.5
  }
}
layer {
  name: "ip2"
  type: "InnerProduct"
  bottom: "ip1"
  top: "ip2"
  param {
    lr_mult: 1
  }
  param {
    lr_mult: 2
  }
  inner_product_param {
    num_output: 2
    weight_filler {
      type: "xavier"
    }
    bias_filler {
      type: "constant"
    }
  }
}
layer {
  name: "loss"
  type: "SoftmaxWithLoss"
  bottom: "ip2"
  bottom: "label"
  top: "loss"
}
I0307 14:52:37.601554 2997859264 layer_factory.hpp:77] Creating layer data
I0307 14:52:37.602871 2997859264 db_lmdb.cpp:35] Opened lmdb train_lmdb
I0307 14:52:37.602947 2997859264 net.cpp:84] Creating Layer data
I0307 14:52:37.602977 2997859264 net.cpp:380] data -> data
I0307 14:52:37.603595 2997859264 net.cpp:380] data -> label
I0307 14:52:37.603621 2997859264 data_transformer.cpp:25] Loading mean file from: mean.binaryproto
I0307 14:52:37.603770 2997859264 data_layer.cpp:45] output data size: 256,1,50,50
I0307 14:52:37.615453 2997859264 net.cpp:122] Setting up data
I0307 14:52:37.615499 2997859264 net.cpp:129] Top shape: 256 1 50 50 (640000)
I0307 14:52:37.615509 2997859264 net.cpp:129] Top shape: 256 (256)
I0307 14:52:37.615514 2997859264 net.cpp:137] Memory required for data: 2561024
I0307 14:52:37.615523 2997859264 layer_factory.hpp:77] Creating layer conv1
I0307 14:52:37.615540 2997859264 net.cpp:84] Creating Layer conv1
I0307 14:52:37.615545 2997859264 net.cpp:406] conv1 <- data
I0307 14:52:37.615553 2997859264 net.cpp:380] conv1 -> conv1
I0307 14:52:37.615639 2997859264 net.cpp:122] Setting up conv1
I0307 14:52:37.615645 2997859264 net.cpp:129] Top shape: 256 20 46 46 (10833920)
I0307 14:52:37.615917 2997859264 net.cpp:137] Memory required for data: 45896704
I0307 14:52:37.615937 2997859264 layer_factory.hpp:77] Creating layer pool1
I0307 14:52:37.615947 2997859264 net.cpp:84] Creating Layer pool1
I0307 14:52:37.615952 2997859264 net.cpp:406] pool1 <- conv1
I0307 14:52:37.615959 2997859264 net.cpp:380] pool1 -> pool1
I0307 14:52:37.616227 2997859264 net.cpp:122] Setting up pool1
I0307 14:52:37.616242 2997859264 net.cpp:129] Top shape: 256 20 23 23 (2708480)
I0307 14:52:37.616250 2997859264 net.cpp:137] Memory required for data: 56730624
I0307 14:52:37.616255 2997859264 layer_factory.hpp:77] Creating layer conv2
I0307 14:52:37.616271 2997859264 net.cpp:84] Creating Layer conv2
I0307 14:52:37.616276 2997859264 net.cpp:406] conv2 <- pool1
I0307 14:52:37.616284 2997859264 net.cpp:380] conv2 -> conv2
I0307 14:52:37.616587 2997859264 net.cpp:122] Setting up conv2
I0307 14:52:37.616593 2997859264 net.cpp:129] Top shape: 256 50 19 19 (4620800)
I0307 14:52:37.616600 2997859264 net.cpp:137] Memory required for data: 75213824
I0307 14:52:37.616608 2997859264 layer_factory.hpp:77] Creating layer pool2
I0307 14:52:37.616616 2997859264 net.cpp:84] Creating Layer pool2
I0307 14:52:37.616621 2997859264 net.cpp:406] pool2 <- conv2
I0307 14:52:37.616626 2997859264 net.cpp:380] pool2 -> pool2
I0307 14:52:37.616633 2997859264 net.cpp:122] Setting up pool2
I0307 14:52:37.616639 2997859264 net.cpp:129] Top shape: 256 50 10 10 (1280000)
I0307 14:52:37.616644 2997859264 net.cpp:137] Memory required for data: 80333824
I0307 14:52:37.616649 2997859264 layer_factory.hpp:77] Creating layer ip1
I0307 14:52:37.616657 2997859264 net.cpp:84] Creating Layer ip1
I0307 14:52:37.616662 2997859264 net.cpp:406] ip1 <- pool2
I0307 14:52:37.616667 2997859264 net.cpp:380] ip1 -> ip1
I0307 14:52:37.643347 2997859264 net.cpp:122] Setting up ip1
I0307 14:52:37.643369 2997859264 net.cpp:129] Top shape: 256 500 (128000)
I0307 14:52:37.643375 2997859264 net.cpp:137] Memory required for data: 80845824
I0307 14:52:37.643385 2997859264 layer_factory.hpp:77] Creating layer relu1
I0307 14:52:37.643679 2997859264 net.cpp:84] Creating Layer relu1
I0307 14:52:37.643692 2997859264 net.cpp:406] relu1 <- ip1
I0307 14:52:37.643699 2997859264 net.cpp:367] relu1 -> ip1 (in-place)
I0307 14:52:37.643707 2997859264 net.cpp:122] Setting up relu1
I0307 14:52:37.643712 2997859264 net.cpp:129] Top shape: 256 500 (128000)
I0307 14:52:37.643717 2997859264 net.cpp:137] Memory required for data: 81357824
I0307 14:52:37.643720 2997859264 layer_factory.hpp:77] Creating layer drop1
I0307 14:52:37.643726 2997859264 net.cpp:84] Creating Layer drop1
I0307 14:52:37.643731 2997859264 net.cpp:406] drop1 <- ip1
I0307 14:52:37.643738 2997859264 net.cpp:367] drop1 -> ip1 (in-place)
I0307 14:52:37.643954 2997859264 net.cpp:122] Setting up drop1
I0307 14:52:37.643967 2997859264 net.cpp:129] Top shape: 256 500 (128000)
I0307 14:52:37.643973 2997859264 net.cpp:137] Memory required for data: 81869824
I0307 14:52:37.643978 2997859264 layer_factory.hpp:77] Creating layer ip2
I0307 14:52:37.643991 2997859264 net.cpp:84] Creating Layer ip2
I0307 14:52:37.643996 2997859264 net.cpp:406] ip2 <- ip1
I0307 14:52:37.644029 2997859264 net.cpp:380] ip2 -> ip2
I0307 14:52:37.644059 2997859264 net.cpp:122] Setting up ip2
I0307 14:52:37.644065 2997859264 net.cpp:129] Top shape: 256 2 (512)
I0307 14:52:37.644070 2997859264 net.cpp:137] Memory required for data: 81871872
I0307 14:52:37.644076 2997859264 layer_factory.hpp:77] Creating layer loss
I0307 14:52:37.644083 2997859264 net.cpp:84] Creating Layer loss
I0307 14:52:37.644088 2997859264 net.cpp:406] loss <- ip2
I0307 14:52:37.644093 2997859264 net.cpp:406] loss <- label
I0307 14:52:37.644100 2997859264 net.cpp:380] loss -> loss
…
I0307 14:52:37.644767 2997859264 solver.cpp:173] Creating test net (#0) specified by net file: model/train_val_feature_scaled.prototxt
I0307 14:52:37.644791 2997859264 net.cpp:294] The NetState phase (1) differed from the phase (0) specified by a rule in layer data
I0307 14:52:37.644804 2997859264 net.cpp:51] Initializing net from parameters: 
name: "LeNet"
state {
  phase: TEST
}
layer {
  name: "data"
  type: "Data"
  top: "data"
  top: "label"
  include {
    phase: TEST
  }
  transform_param {
    scale: 0.00390625
    mirror: false
    mean_file: "mean.binaryproto"
  }
  data_param {
    source: "val_lmdb"
    batch_size: 60
    backend: LMDB
  }
}
layer {
  name: "conv1"
  type: "Convolution"
  bottom: "data"
  top: "conv1"
  param {
    lr_mult: 1
  }
  param {
    lr_mult: 2
  }
  convolution_param {
    num_output: 20
    kernel_size: 5
    stride: 1
    weight_filler {
      type: "xavier"
    }
    bias_filler {
      type: "constant"
    }
  }
}
layer {
  name: "pool1"
  type: "Pooling"
  bottom: "conv1"
  top: "pool1"
  pooling_param {
    pool: MAX
    kernel_size: 2
    stride: 2
  }
}
layer {
  name: "conv2"
  type: "Convolution"
  bottom: "pool1"
  top: "conv2"
  param {
    lr_mult: 1
  }
  param {
    lr_mult: 2
  }
  convolution_param {
    num_output: 50
    kernel_size: 5
    stride: 1
    weight_filler {
      type: "xavier"
    }
    bias_filler {
      type: "constant"
    }
  }
}
layer {
  name: "pool2"
  type: "Pooling"
  bottom: "conv2"
  top: "pool2"
  pooling_param {
    pool: MAX
    kernel_size: 2
    stride: 2
  }
}
layer {
  name: "ip1"
  type: "InnerProduct"
  bottom: "pool2"
  top: "ip1"
  param {
    lr_mult: 1
  }
  param {
    lr_mult: 2
  }
  inner_product_param {
    num_output: 500
    weight_filler {
      type: "xavier"
    }
    bias_filler {
      type: "constant"
    }
  }
}
layer {
  name: "relu1"
  type: "ReLU"
  bottom: "ip1"
  top: "ip1"
}
layer {
  name: "drop1"
  type: "Dropout"
  bottom: "ip1"
  top: "ip1"
  dropout_param {
    dropout_ratio: 0.5
  }
}
layer {
  name: "ip2"
  type: "InnerProduct"
  bottom: "ip1"
  top: "ip2"
  param {
    lr_mult: 1
  }
  param {
    lr_mult: 2
  }
  inner_product_param {
    num_output: 2
    weight_filler {
      type: "xavier"
    }
    bias_filler {
      type: "constant"
    }
  }
}
layer {
  name: "loss"
  type: "SoftmaxWithLoss"
  bottom: "ip2"
  bottom: "label"
  top: "loss"
}
layer {
  name: "accuracy"
  type: "Accuracy"
  bottom: "ip2"
  bottom: "label"
  top: "accuracy"
  include {
    phase: TEST
  }
}
I0307 14:52:37.645023 2997859264 layer_factory.hpp:77] Creating layer data
I0307 14:52:37.645129 2997859264 db_lmdb.cpp:35] Opened lmdb val_lmdb
I0307 14:52:37.645170 2997859264 net.cpp:84] Creating Layer data
I0307 14:52:37.645200 2997859264 net.cpp:380] data -> data
I0307 14:52:37.645215 2997859264 net.cpp:380] data -> label
I0307 14:52:37.645221 2997859264 data_transformer.cpp:25] Loading mean file from: mean.binaryproto
I0307 14:52:37.645288 2997859264 data_layer.cpp:45] output data size: 60,1,50,50
I0307 14:52:37.646498 2997859264 net.cpp:122] Setting up data
I0307 14:52:37.646507 2997859264 net.cpp:129] Top shape: 60 1 50 50 (150000)
I0307 14:52:37.646513 2997859264 net.cpp:129] Top shape: 60 (60)
I0307 14:52:37.646517 2997859264 net.cpp:137] Memory required for data: 600240
I0307 14:52:37.646522 2997859264 layer_factory.hpp:77] Creating layer label_data_1_split
I0307 14:52:37.646529 2997859264 net.cpp:84] Creating Layer label_data_1_split
I0307 14:52:37.646533 2997859264 net.cpp:406] label_data_1_split <- label
I0307 14:52:37.646538 2997859264 net.cpp:380] label_data_1_split -> label_data_1_split_0
I0307 14:52:37.646545 2997859264 net.cpp:380] label_data_1_split -> label_data_1_split_1
I0307 14:52:37.646564 2997859264 net.cpp:122] Setting up label_data_1_split
I0307 14:52:37.646567 2997859264 net.cpp:129] Top shape: 60 (60)
I0307 14:52:37.646572 2997859264 net.cpp:129] Top shape: 60 (60)
I0307 14:52:37.646576 2997859264 net.cpp:137] Memory required for data: 600720
I0307 14:52:37.646580 2997859264 layer_factory.hpp:77] Creating layer conv1
I0307 14:52:37.646591 2997859264 net.cpp:84] Creating Layer conv1
I0307 14:52:37.646596 2997859264 net.cpp:406] conv1 <- data
I0307 14:52:37.646601 2997859264 net.cpp:380] conv1 -> conv1
I0307 14:52:37.646630 2997859264 net.cpp:122] Setting up conv1
I0307 14:52:37.646634 2997859264 net.cpp:129] Top shape: 60 20 46 46 (2539200)
I0307 14:52:37.646639 2997859264 net.cpp:137] Memory required for data: 10757520
I0307 14:52:37.646646 2997859264 layer_factory.hpp:77] Creating layer pool1
I0307 14:52:37.646657 2997859264 net.cpp:84] Creating Layer pool1
I0307 14:52:37.646661 2997859264 net.cpp:406] pool1 <- conv1
I0307 14:52:37.646666 2997859264 net.cpp:380] pool1 -> pool1
I0307 14:52:37.646673 2997859264 net.cpp:122] Setting up pool1
I0307 14:52:37.646677 2997859264 net.cpp:129] Top shape: 60 20 23 23 (634800)
I0307 14:52:37.646682 2997859264 net.cpp:137] Memory required for data: 13296720
I0307 14:52:37.646687 2997859264 layer_factory.hpp:77] Creating layer conv2
I0307 14:52:37.646692 2997859264 net.cpp:84] Creating Layer conv2
I0307 14:52:37.646697 2997859264 net.cpp:406] conv2 <- pool1
I0307 14:52:37.646703 2997859264 net.cpp:380] conv2 -> conv2
I0307 14:52:37.646951 2997859264 net.cpp:122] Setting up conv2
I0307 14:52:37.646957 2997859264 net.cpp:129] Top shape: 60 50 19 19 (1083000)
I0307 14:52:37.646962 2997859264 net.cpp:137] Memory required for data: 17628720
I0307 14:52:37.647001 2997859264 layer_factory.hpp:77] Creating layer pool2
I0307 14:52:37.647009 2997859264 net.cpp:84] Creating Layer pool2
I0307 14:52:37.647013 2997859264 net.cpp:406] pool2 <- conv2
I0307 14:52:37.647018 2997859264 net.cpp:380] pool2 -> pool2
I0307 14:52:37.647063 2997859264 net.cpp:122] Setting up pool2
I0307 14:52:37.647070 2997859264 net.cpp:129] Top shape: 60 50 10 10 (300000)
I0307 14:52:37.647076 2997859264 net.cpp:137] Memory required for data: 18828720
I0307 14:52:37.647080 2997859264 layer_factory.hpp:77] Creating layer ip1
I0307 14:52:37.647089 2997859264 net.cpp:84] Creating Layer ip1
I0307 14:52:37.647092 2997859264 net.cpp:406] ip1 <- pool2
I0307 14:52:37.647100 2997859264 net.cpp:380] ip1 -> ip1
I0307 14:52:37.675626 2997859264 net.cpp:122] Setting up ip1
I0307 14:52:37.675645 2997859264 net.cpp:129] Top shape: 60 500 (30000)
I0307 14:52:37.675652 2997859264 net.cpp:137] Memory required for data: 18948720
I0307 14:52:37.675660 2997859264 layer_factory.hpp:77] Creating layer relu1
I0307 14:52:37.675668 2997859264 net.cpp:84] Creating Layer relu1
I0307 14:52:37.675673 2997859264 net.cpp:406] relu1 <- ip1
I0307 14:52:37.675678 2997859264 net.cpp:367] relu1 -> ip1 (in-place)
I0307 14:52:37.675685 2997859264 net.cpp:122] Setting up relu1
I0307 14:52:37.675689 2997859264 net.cpp:129] Top shape: 60 500 (30000)
I0307 14:52:37.675694 2997859264 net.cpp:137] Memory required for data: 19068720
I0307 14:52:37.675704 2997859264 layer_factory.hpp:77] Creating layer drop1
I0307 14:52:37.675710 2997859264 net.cpp:84] Creating Layer drop1
I0307 14:52:37.675714 2997859264 net.cpp:406] drop1 <- ip1
I0307 14:52:37.675750 2997859264 net.cpp:367] drop1 -> ip1 (in-place)
I0307 14:52:37.675757 2997859264 net.cpp:122] Setting up drop1
I0307 14:52:37.675760 2997859264 net.cpp:129] Top shape: 60 500 (30000)
I0307 14:52:37.675765 2997859264 net.cpp:137] Memory required for data: 19188720
I0307 14:52:37.675770 2997859264 layer_factory.hpp:77] Creating layer ip2
I0307 14:52:37.675776 2997859264 net.cpp:84] Creating Layer ip2
I0307 14:52:37.675781 2997859264 net.cpp:406] ip2 <- ip1
I0307 14:52:37.675786 2997859264 net.cpp:380] ip2 -> ip2
I0307 14:52:37.675804 2997859264 net.cpp:122] Setting up ip2
I0307 14:52:37.675808 2997859264 net.cpp:129] Top shape: 60 2 (120)
I0307 14:52:37.675813 2997859264 net.cpp:137] Memory required for data: 19189200
I0307 14:52:37.675818 2997859264 layer_factory.hpp:77] Creating layer ip2_ip2_0_split
I0307 14:52:37.675823 2997859264 net.cpp:84] Creating Layer ip2_ip2_0_split
I0307 14:52:37.675832 2997859264 net.cpp:406] ip2_ip2_0_split <- ip2
I0307 14:52:37.675837 2997859264 net.cpp:380] ip2_ip2_0_split -> ip2_ip2_0_split_0
I0307 14:52:37.675843 2997859264 net.cpp:380] ip2_ip2_0_split -> ip2_ip2_0_split_1
I0307 14:52:37.675848 2997859264 net.cpp:122] Setting up ip2_ip2_0_split
I0307 14:52:37.675851 2997859264 net.cpp:129] Top shape: 60 2 (120)
I0307 14:52:37.675855 2997859264 net.cpp:129] Top shape: 60 2 (120)
I0307 14:52:37.675859 2997859264 net.cpp:137] Memory required for data: 19190160
I0307 14:52:37.675863 2997859264 layer_factory.hpp:77] Creating layer loss
I0307 14:52:37.675869 2997859264 net.cpp:84] Creating Layer loss
I0307 14:52:37.675873 2997859264 net.cpp:406] loss <- ip2_ip2_0_split_0
I0307 14:52:37.675878 2997859264 net.cpp:406] loss <- label_data_1_split_0
I0307 14:52:37.675884 2997859264 net.cpp:380] loss -> loss
…
