…
I0307 09:21:52.581684 2997859264 net.cpp:294] The NetState phase (0) differed from the phase (1) specified by a rule in layer accuracy
I0307 09:21:52.581689 2997859264 net.cpp:51] Initializing net from parameters: 
name: "LeNet"
state {
  phase: TRAIN
  level: 0
  stage: ""
}
layer {
  name: "data"
  type: "Data"
  top: "data"
  top: "label"
  include {
    phase: TRAIN
  }
  transform_param {
    scale: 0.00390625
    mirror: false
    mean_file: "mean.binaryproto"
  }
  data_param {
    source: "train_lmdb"
    batch_size: 256
    backend: LMDB
  }
}
layer {
  name: "conv1"
  type: "Convolution"
  bottom: "data"
  top: "conv1"
  param {
    lr_mult: 1
  }
  param {
    lr_mult: 2
  }
  convolution_param {
    num_output: 20
    kernel_size: 5
    stride: 1
    weight_filler {
      type: "xavier"
    }
    bias_filler {
      type: "constant"
    }
  }
}
layer {
  name: "pool1"
  type: "Pooling"
  bottom: "conv1"
  top: "pool1"
  pooling_param {
    pool: MAX
    kernel_size: 2
    stride: 2
  }
}
layer {
  name: "conv2"
  type: "Convolution"
  bottom: "pool1"
  top: "conv2"
  param {
    lr_mult: 1
  }
  param {
    lr_mult: 2
  }
  convolution_param {
    num_output: 50
    kernel_size: 5
    stride: 1
    weight_filler {
      type: "xavier"
    }
    bias_filler {
      type: "constant"
    }
  }
}
layer {
  name: "pool2"
  type: "Pooling"
  bottom: "conv2"
  top: "pool2"
  pooling_param {
    pool: MAX
    kernel_size: 2
    stride: 2
  }
}
layer {
  name: "ip1"
  type: "InnerProduct"
  bottom: "pool2"
  top: "ip1"
  param {
    lr_mult: 1
  }
  param {
    lr_mult: 2
  }
  inner_product_param {
    num_output: 500
    weight_filler {
      type: "xavier"
    }
    bias_filler {
      type: "constant"
    }
  }
}
layer {
  name: "relu1"
  type: "ReLU"
  bottom: "ip1"
  top: "ip1"
}
layer {
  name: "drop1"
  type: "Dropout"
  bottom: "ip1"
  top: "ip1"
  dropout_param {
    dropout_ratio: 0.5
  }
}
layer {
  name: "ip2"
  type: "InnerProduct"
  bottom: "ip1"
  top: "ip2"
  param {
    lr_mult: 1
  }
  param {
    lr_mult: 2
  }
  inner_product_param {
    num_output: 2
    weight_filler {
      type: "xavier"
    }
    bias_filler {
      type: "constant"
    }
  }
}
layer {
  name: "loss"
  type: "SoftmaxWithLoss"
  bottom: "ip2"
  bottom: "label"
  top: "loss"
}
I0307 09:21:52.581809 2997859264 layer_factory.hpp:77] Creating layer data
I0307 09:21:52.581998 2997859264 db_lmdb.cpp:35] Opened lmdb train_lmdb
I0307 09:21:52.582063 2997859264 net.cpp:84] Creating Layer data
I0307 09:21:52.582073 2997859264 net.cpp:380] data -> data
I0307 09:21:52.582087 2997859264 net.cpp:380] data -> label
I0307 09:21:52.582103 2997859264 data_transformer.cpp:25] Loading mean file from: mean.binaryproto
I0307 09:21:52.582648 2997859264 data_layer.cpp:45] output data size: 256,1,50,50
I0307 09:21:52.594633 2997859264 net.cpp:122] Setting up data
I0307 09:21:52.594662 2997859264 net.cpp:129] Top shape: 256 1 50 50 (640000)
I0307 09:21:52.594677 2997859264 net.cpp:129] Top shape: 256 (256)
I0307 09:21:52.594686 2997859264 net.cpp:137] Memory required for data: 2561024
I0307 09:21:52.594699 2997859264 layer_factory.hpp:77] Creating layer conv1
I0307 09:21:52.594724 2997859264 net.cpp:84] Creating Layer conv1
I0307 09:21:52.594733 2997859264 net.cpp:406] conv1 <- data
I0307 09:21:52.594745 2997859264 net.cpp:380] conv1 -> conv1
I0307 09:21:52.595438 2997859264 net.cpp:122] Setting up conv1
I0307 09:21:52.595453 2997859264 net.cpp:129] Top shape: 256 20 46 46 (10833920)
I0307 09:21:52.596475 2997859264 net.cpp:137] Memory required for data: 45896704
I0307 09:21:52.596496 2997859264 layer_factory.hpp:77] Creating layer pool1
I0307 09:21:52.596509 2997859264 net.cpp:84] Creating Layer pool1
I0307 09:21:52.596516 2997859264 net.cpp:406] pool1 <- conv1
I0307 09:21:52.596524 2997859264 net.cpp:380] pool1 -> pool1
I0307 09:21:52.596544 2997859264 net.cpp:122] Setting up pool1
I0307 09:21:52.596552 2997859264 net.cpp:129] Top shape: 256 20 23 23 (2708480)
I0307 09:21:52.596561 2997859264 net.cpp:137] Memory required for data: 56730624
I0307 09:21:52.596568 2997859264 layer_factory.hpp:77] Creating layer conv2
I0307 09:21:52.596586 2997859264 net.cpp:84] Creating Layer conv2
I0307 09:21:52.596593 2997859264 net.cpp:406] conv2 <- pool1
I0307 09:21:52.596603 2997859264 net.cpp:380] conv2 -> conv2
I0307 09:21:52.597044 2997859264 net.cpp:122] Setting up conv2
I0307 09:21:52.597056 2997859264 net.cpp:129] Top shape: 256 50 19 19 (4620800)
I0307 09:21:52.597064 2997859264 net.cpp:137] Memory required for data: 75213824
I0307 09:21:52.597071 2997859264 layer_factory.hpp:77] Creating layer pool2
I0307 09:21:52.597080 2997859264 net.cpp:84] Creating Layer pool2
I0307 09:21:52.597092 2997859264 net.cpp:406] pool2 <- conv2
I0307 09:21:52.597101 2997859264 net.cpp:380] pool2 -> pool2
I0307 09:21:52.597115 2997859264 net.cpp:122] Setting up pool2
I0307 09:21:52.597122 2997859264 net.cpp:129] Top shape: 256 50 10 10 (1280000)
I0307 09:21:52.597148 2997859264 net.cpp:137] Memory required for data: 80333824
I0307 09:21:52.597157 2997859264 layer_factory.hpp:77] Creating layer ip1
I0307 09:21:52.597168 2997859264 net.cpp:84] Creating Layer ip1
I0307 09:21:52.597177 2997859264 net.cpp:406] ip1 <- pool2
I0307 09:21:52.597185 2997859264 net.cpp:380] ip1 -> ip1
I0307 09:21:52.622689 2997859264 net.cpp:122] Setting up ip1
I0307 09:21:52.622714 2997859264 net.cpp:129] Top shape: 256 500 (128000)
I0307 09:21:52.622721 2997859264 net.cpp:137] Memory required for data: 80845824
I0307 09:21:52.622732 2997859264 layer_factory.hpp:77] Creating layer relu1
I0307 09:21:52.622748 2997859264 net.cpp:84] Creating Layer relu1
I0307 09:21:52.622753 2997859264 net.cpp:406] relu1 <- ip1
I0307 09:21:52.622759 2997859264 net.cpp:367] relu1 -> ip1 (in-place)
I0307 09:21:52.622769 2997859264 net.cpp:122] Setting up relu1
I0307 09:21:52.622776 2997859264 net.cpp:129] Top shape: 256 500 (128000)
I0307 09:21:52.622782 2997859264 net.cpp:137] Memory required for data: 81357824
I0307 09:21:52.622786 2997859264 layer_factory.hpp:77] Creating layer drop1
I0307 09:21:52.622792 2997859264 net.cpp:84] Creating Layer drop1
I0307 09:21:52.622797 2997859264 net.cpp:406] drop1 <- ip1
I0307 09:21:52.622802 2997859264 net.cpp:367] drop1 -> ip1 (in-place)
I0307 09:21:52.622812 2997859264 net.cpp:122] Setting up drop1
I0307 09:21:52.622817 2997859264 net.cpp:129] Top shape: 256 500 (128000)
I0307 09:21:52.622822 2997859264 net.cpp:137] Memory required for data: 81869824
I0307 09:21:52.622826 2997859264 layer_factory.hpp:77] Creating layer ip2
I0307 09:21:52.622838 2997859264 net.cpp:84] Creating Layer ip2
I0307 09:21:52.622843 2997859264 net.cpp:406] ip2 <- ip1
I0307 09:21:52.622856 2997859264 net.cpp:380] ip2 -> ip2
I0307 09:21:52.622879 2997859264 net.cpp:122] Setting up ip2
I0307 09:21:52.622884 2997859264 net.cpp:129] Top shape: 256 2 (512)
I0307 09:21:52.622889 2997859264 net.cpp:137] Memory required for data: 81871872
I0307 09:21:52.622895 2997859264 layer_factory.hpp:77] Creating layer loss
I0307 09:21:52.622900 2997859264 net.cpp:84] Creating Layer loss
I0307 09:21:52.622905 2997859264 net.cpp:406] loss <- ip2
I0307 09:21:52.622908 2997859264 net.cpp:406] loss <- label
I0307 09:21:52.622916 2997859264 net.cpp:380] loss -> loss
…
I0307 09:21:52.623296 2997859264 solver.cpp:173] Creating test net (#0) specified by net file: model/train_val_feature_scaled.prototxt
I0307 09:21:52.623322 2997859264 net.cpp:294] The NetState phase (1) differed from the phase (0) specified by a rule in layer data
I0307 09:21:52.623333 2997859264 net.cpp:51] Initializing net from parameters: 
name: "LeNet"
state {
  phase: TEST
}
layer {
  name: "data"
  type: "Data"
  top: "data"
  top: "label"
  include {
    phase: TEST
  }
  transform_param {
    scale: 0.00390625
    mirror: false
    mean_file: "mean.binaryproto"
  }
  data_param {
    source: "val_lmdb"
    batch_size: 60
    backend: LMDB
  }
}
layer {
  name: "conv1"
  type: "Convolution"
  bottom: "data"
  top: "conv1"
  param {
    lr_mult: 1
  }
  param {
    lr_mult: 2
  }
  convolution_param {
    num_output: 20
    kernel_size: 5
    stride: 1
    weight_filler {
      type: "xavier"
    }
    bias_filler {
      type: "constant"
    }
  }
}
layer {
  name: "pool1"
  type: "Pooling"
  bottom: "conv1"
  top: "pool1"
  pooling_param {
    pool: MAX
    kernel_size: 2
    stride: 2
  }
}
layer {
  name: "conv2"
  type: "Convolution"
  bottom: "pool1"
  top: "conv2"
  param {
    lr_mult: 1
  }
  param {
    lr_mult: 2
  }
  convolution_param {
    num_output: 50
    kernel_size: 5
    stride: 1
    weight_filler {
      type: "xavier"
    }
    bias_filler {
      type: "constant"
    }
  }
}
layer {
  name: "pool2"
  type: "Pooling"
  bottom: "conv2"
  top: "pool2"
  pooling_param {
    pool: MAX
    kernel_size: 2
    stride: 2
  }
}
layer {
  name: "ip1"
  type: "InnerProduct"
  bottom: "pool2"
  top: "ip1"
  param {
    lr_mult: 1
  }
  param {
    lr_mult: 2
  }
  inner_product_param {
    num_output: 500
    weight_filler {
      type: "xavier"
    }
    bias_filler {
      type: "constant"
    }
  }
}
layer {
  name: "relu1"
  type: "ReLU"
  bottom: "ip1"
  top: "ip1"
}
layer {
  name: "drop1"
  type: "Dropout"
  bottom: "ip1"
  top: "ip1"
  dropout_param {
    dropout_ratio: 0.5
  }
}
layer {
  name: "ip2"
  type: "InnerProduct"
  bottom: "ip1"
  top: "ip2"
  param {
    lr_mult: 1
  }
  param {
    lr_mult: 2
  }
  inner_product_param {
    num_output: 2
    weight_filler {
      type: "xavier"
    }
    bias_filler {
      type: "constant"
    }
  }
}
layer {
  name: "loss"
  type: "SoftmaxWithLoss"
  bottom: "ip2"
  bottom: "label"
  top: "loss"
}
layer {
  name: "accuracy"
  type: "Accuracy"
  bottom: "ip2"
  bottom: "label"
  top: "accuracy"
  include {
    phase: TEST
  }
}
I0307 09:21:52.623463 2997859264 layer_factory.hpp:77] Creating layer data
I0307 09:21:52.623536 2997859264 db_lmdb.cpp:35] Opened lmdb val_lmdb
I0307 09:21:52.623579 2997859264 net.cpp:84] Creating Layer data
I0307 09:21:52.623589 2997859264 net.cpp:380] data -> data
I0307 09:21:52.624590 2997859264 net.cpp:380] data -> label
I0307 09:21:52.624632 2997859264 data_transformer.cpp:25] Loading mean file from: mean.binaryproto
I0307 09:21:52.624730 2997859264 data_layer.cpp:45] output data size: 60,1,50,50
I0307 09:21:52.626140 2997859264 net.cpp:122] Setting up data
I0307 09:21:52.626155 2997859264 net.cpp:129] Top shape: 60 1 50 50 (150000)
I0307 09:21:52.626163 2997859264 net.cpp:129] Top shape: 60 (60)
I0307 09:21:52.626168 2997859264 net.cpp:137] Memory required for data: 600240
I0307 09:21:52.626173 2997859264 layer_factory.hpp:77] Creating layer label_data_1_split
I0307 09:21:52.626180 2997859264 net.cpp:84] Creating Layer label_data_1_split
I0307 09:21:52.626185 2997859264 net.cpp:406] label_data_1_split <- label
I0307 09:21:52.626191 2997859264 net.cpp:380] label_data_1_split -> label_data_1_split_0
I0307 09:21:52.626199 2997859264 net.cpp:380] label_data_1_split -> label_data_1_split_1
I0307 09:21:52.626207 2997859264 net.cpp:122] Setting up label_data_1_split
I0307 09:21:52.626211 2997859264 net.cpp:129] Top shape: 60 (60)
I0307 09:21:52.626216 2997859264 net.cpp:129] Top shape: 60 (60)
I0307 09:21:52.626220 2997859264 net.cpp:137] Memory required for data: 600720
I0307 09:21:52.626225 2997859264 layer_factory.hpp:77] Creating layer conv1
I0307 09:21:52.626237 2997859264 net.cpp:84] Creating Layer conv1
I0307 09:21:52.626243 2997859264 net.cpp:406] conv1 <- data
I0307 09:21:52.626248 2997859264 net.cpp:380] conv1 -> conv1
I0307 09:21:52.626281 2997859264 net.cpp:122] Setting up conv1
I0307 09:21:52.626286 2997859264 net.cpp:129] Top shape: 60 20 46 46 (2539200)
I0307 09:21:52.626291 2997859264 net.cpp:137] Memory required for data: 10757520
I0307 09:21:52.626298 2997859264 layer_factory.hpp:77] Creating layer pool1
I0307 09:21:52.626305 2997859264 net.cpp:84] Creating Layer pool1
I0307 09:21:52.626309 2997859264 net.cpp:406] pool1 <- conv1
I0307 09:21:52.626314 2997859264 net.cpp:380] pool1 -> pool1
I0307 09:21:52.626322 2997859264 net.cpp:122] Setting up pool1
I0307 09:21:52.626327 2997859264 net.cpp:129] Top shape: 60 20 23 23 (634800)
I0307 09:21:52.626333 2997859264 net.cpp:137] Memory required for data: 13296720
I0307 09:21:52.626338 2997859264 layer_factory.hpp:77] Creating layer conv2
I0307 09:21:52.626345 2997859264 net.cpp:84] Creating Layer conv2
I0307 09:21:52.626363 2997859264 net.cpp:406] conv2 <- pool1
I0307 09:21:52.626369 2997859264 net.cpp:380] conv2 -> conv2
I0307 09:21:52.626646 2997859264 net.cpp:122] Setting up conv2
I0307 09:21:52.626652 2997859264 net.cpp:129] Top shape: 60 50 19 19 (1083000)
I0307 09:21:52.626657 2997859264 net.cpp:137] Memory required for data: 17628720
I0307 09:21:52.626663 2997859264 layer_factory.hpp:77] Creating layer pool2
I0307 09:21:52.626668 2997859264 net.cpp:84] Creating Layer pool2
I0307 09:21:52.626672 2997859264 net.cpp:406] pool2 <- conv2
I0307 09:21:52.626677 2997859264 net.cpp:380] pool2 -> pool2
I0307 09:21:52.626684 2997859264 net.cpp:122] Setting up pool2
I0307 09:21:52.626688 2997859264 net.cpp:129] Top shape: 60 50 10 10 (300000)
I0307 09:21:52.626693 2997859264 net.cpp:137] Memory required for data: 18828720
I0307 09:21:52.626698 2997859264 layer_factory.hpp:77] Creating layer ip1
I0307 09:21:52.626703 2997859264 net.cpp:84] Creating Layer ip1
I0307 09:21:52.626708 2997859264 net.cpp:406] ip1 <- pool2
I0307 09:21:52.626716 2997859264 net.cpp:380] ip1 -> ip1
I0307 09:21:52.656142 2997859264 net.cpp:122] Setting up ip1
I0307 09:21:52.656165 2997859264 net.cpp:129] Top shape: 60 500 (30000)
I0307 09:21:52.656173 2997859264 net.cpp:137] Memory required for data: 18948720
I0307 09:21:52.656183 2997859264 layer_factory.hpp:77] Creating layer relu1
I0307 09:21:52.656193 2997859264 net.cpp:84] Creating Layer relu1
I0307 09:21:52.656198 2997859264 net.cpp:406] relu1 <- ip1
I0307 09:21:52.656205 2997859264 net.cpp:367] relu1 -> ip1 (in-place)
I0307 09:21:52.656213 2997859264 net.cpp:122] Setting up relu1
I0307 09:21:52.656219 2997859264 net.cpp:129] Top shape: 60 500 (30000)
I0307 09:21:52.656224 2997859264 net.cpp:137] Memory required for data: 19068720
I0307 09:21:52.656227 2997859264 layer_factory.hpp:77] Creating layer drop1
I0307 09:21:52.656235 2997859264 net.cpp:84] Creating Layer drop1
I0307 09:21:52.656239 2997859264 net.cpp:406] drop1 <- ip1
I0307 09:21:52.656265 2997859264 net.cpp:367] drop1 -> ip1 (in-place)
I0307 09:21:52.656302 2997859264 net.cpp:122] Setting up drop1
I0307 09:21:52.656318 2997859264 net.cpp:129] Top shape: 60 500 (30000)
I0307 09:21:52.656324 2997859264 net.cpp:137] Memory required for data: 19188720
I0307 09:21:52.656329 2997859264 layer_factory.hpp:77] Creating layer ip2
I0307 09:21:52.656339 2997859264 net.cpp:84] Creating Layer ip2
I0307 09:21:52.656343 2997859264 net.cpp:406] ip2 <- ip1
I0307 09:21:52.656350 2997859264 net.cpp:380] ip2 -> ip2
I0307 09:21:52.656373 2997859264 net.cpp:122] Setting up ip2
I0307 09:21:52.656378 2997859264 net.cpp:129] Top shape: 60 2 (120)
I0307 09:21:52.656383 2997859264 net.cpp:137] Memory required for data: 19189200
I0307 09:21:52.656389 2997859264 layer_factory.hpp:77] Creating layer ip2_ip2_0_split
I0307 09:21:52.656395 2997859264 net.cpp:84] Creating Layer ip2_ip2_0_split
I0307 09:21:52.656399 2997859264 net.cpp:406] ip2_ip2_0_split <- ip2
I0307 09:21:52.656404 2997859264 net.cpp:380] ip2_ip2_0_split -> ip2_ip2_0_split_0
I0307 09:21:52.656410 2997859264 net.cpp:380] ip2_ip2_0_split -> ip2_ip2_0_split_1
I0307 09:21:52.656417 2997859264 net.cpp:122] Setting up ip2_ip2_0_split
I0307 09:21:52.656421 2997859264 net.cpp:129] Top shape: 60 2 (120)
I0307 09:21:52.656425 2997859264 net.cpp:129] Top shape: 60 2 (120)
I0307 09:21:52.656430 2997859264 net.cpp:137] Memory required for data: 19190160
I0307 09:21:52.656435 2997859264 layer_factory.hpp:77] Creating layer loss
I0307 09:21:52.656440 2997859264 net.cpp:84] Creating Layer loss
I0307 09:21:52.656445 2997859264 net.cpp:406] loss <- ip2_ip2_0_split_0
I0307 09:21:52.656450 2997859264 net.cpp:406] loss <- label_data_1_split_0
I0307 09:21:52.656457 2997859264 net.cpp:380] loss -> loss
…
