…
I0307 18:45:22.622114 2997859264 net.cpp:294] The NetState phase (0) differed from the phase (1) specified by a rule in layer accuracy
I0307 18:45:22.622120 2997859264 net.cpp:51] Initializing net from parameters: 
name: "LeNet"
state {
  phase: TRAIN
  level: 0
  stage: ""
}
layer {
  name: "data"
  type: "Data"
  top: "data"
  top: "label"
  include {
    phase: TRAIN
  }
  transform_param {
    scale: 0.00390625
    mirror: false
    mean_file: "mean.binaryproto"
  }
  data_param {
    source: "train_lmdb"
    batch_size: 256
    backend: LMDB
  }
}
layer {
  name: "conv1"
  type: "Convolution"
  bottom: "data"
  top: "conv1"
  param {
    lr_mult: 1
  }
  param {
    lr_mult: 2
  }
  convolution_param {
    num_output: 20
    kernel_size: 5
    stride: 1
    weight_filler {
      type: "xavier"
    }
    bias_filler {
      type: "constant"
    }
  }
}
layer {
  name: "pool1"
  type: "Pooling"
  bottom: "conv1"
  top: "pool1"
  pooling_param {
    pool: MAX
    kernel_size: 2
    stride: 2
  }
}
layer {
  name: "conv2"
  type: "Convolution"
  bottom: "pool1"
  top: "conv2"
  param {
    lr_mult: 1
  }
  param {
    lr_mult: 2
  }
  convolution_param {
    num_output: 50
    kernel_size: 5
    stride: 1
    weight_filler {
      type: "xavier"
    }
    bias_filler {
      type: "constant"
    }
  }
}
layer {
  name: "pool2"
  type: "Pooling"
  bottom: "conv2"
  top: "pool2"
  pooling_param {
    pool: MAX
    kernel_size: 2
    stride: 2
  }
}
layer {
  name: "ip1"
  type: "InnerProduct"
  bottom: "pool2"
  top: "ip1"
  param {
    lr_mult: 1
  }
  param {
    lr_mult: 2
  }
  inner_product_param {
    num_output: 500
    weight_filler {
      type: "xavier"
    }
    bias_filler {
      type: "constant"
    }
  }
}
layer {
  name: "relu1"
  type: "ReLU"
  bottom: "ip1"
  top: "ip1"
}
layer {
  name: "drop1"
  type: "Dropout"
  bottom: "ip1"
  top: "ip1"
  dropout_param {
    dropout_ratio: 0.5
  }
}
layer {
  name: "ip2"
  type: "InnerProduct"
  bottom: "ip1"
  top: "ip2"
  param {
    lr_mult: 1
  }
  param {
    lr_mult: 2
  }
  inner_product_param {
    num_output: 2
    weight_filler {
      type: "xavier"
    }
    bias_filler {
      type: "constant"
    }
  }
}
layer {
  name: "loss"
  type: "SoftmaxWithLoss"
  bottom: "ip2"
  bottom: "label"
  top: "loss"
}
I0307 18:45:22.622236 2997859264 layer_factory.hpp:77] Creating layer data
I0307 18:45:22.623334 2997859264 db_lmdb.cpp:35] Opened lmdb train_lmdb
I0307 18:45:22.625568 2997859264 net.cpp:84] Creating Layer data
I0307 18:45:22.625589 2997859264 net.cpp:380] data -> data
I0307 18:45:22.625607 2997859264 net.cpp:380] data -> label
I0307 18:45:22.625630 2997859264 data_transformer.cpp:25] Loading mean file from: mean.binaryproto
I0307 18:45:22.625941 2997859264 data_layer.cpp:45] output data size: 256,1,100,100
I0307 18:45:22.651016 2997859264 net.cpp:122] Setting up data
I0307 18:45:22.651041 2997859264 net.cpp:129] Top shape: 256 1 100 100 (2560000)
I0307 18:45:22.651053 2997859264 net.cpp:129] Top shape: 256 (256)
I0307 18:45:22.651058 2997859264 net.cpp:137] Memory required for data: 10241024
I0307 18:45:22.651065 2997859264 layer_factory.hpp:77] Creating layer conv1
I0307 18:45:22.651121 2997859264 net.cpp:84] Creating Layer conv1
I0307 18:45:22.651130 2997859264 net.cpp:406] conv1 <- data
I0307 18:45:22.651142 2997859264 net.cpp:380] conv1 -> conv1
I0307 18:45:22.651245 2997859264 net.cpp:122] Setting up conv1
I0307 18:45:22.651254 2997859264 net.cpp:129] Top shape: 256 20 96 96 (47185920)
I0307 18:45:22.651291 2997859264 net.cpp:137] Memory required for data: 198984704
I0307 18:45:22.651307 2997859264 layer_factory.hpp:77] Creating layer pool1
I0307 18:45:22.651317 2997859264 net.cpp:84] Creating Layer pool1
I0307 18:45:22.651326 2997859264 net.cpp:406] pool1 <- conv1
I0307 18:45:22.651335 2997859264 net.cpp:380] pool1 -> pool1
I0307 18:45:22.651352 2997859264 net.cpp:122] Setting up pool1
I0307 18:45:22.651360 2997859264 net.cpp:129] Top shape: 256 20 48 48 (11796480)
I0307 18:45:22.651370 2997859264 net.cpp:137] Memory required for data: 246170624
I0307 18:45:22.651377 2997859264 layer_factory.hpp:77] Creating layer conv2
I0307 18:45:22.651389 2997859264 net.cpp:84] Creating Layer conv2
I0307 18:45:22.651396 2997859264 net.cpp:406] conv2 <- pool1
I0307 18:45:22.651406 2997859264 net.cpp:380] conv2 -> conv2
I0307 18:45:22.651700 2997859264 net.cpp:122] Setting up conv2
I0307 18:45:22.651715 2997859264 net.cpp:129] Top shape: 256 50 44 44 (24780800)
I0307 18:45:22.651726 2997859264 net.cpp:137] Memory required for data: 345293824
I0307 18:45:22.651749 2997859264 layer_factory.hpp:77] Creating layer pool2
I0307 18:45:22.651762 2997859264 net.cpp:84] Creating Layer pool2
I0307 18:45:22.651770 2997859264 net.cpp:406] pool2 <- conv2
I0307 18:45:22.651779 2997859264 net.cpp:380] pool2 -> pool2
I0307 18:45:22.651793 2997859264 net.cpp:122] Setting up pool2
I0307 18:45:22.651801 2997859264 net.cpp:129] Top shape: 256 50 22 22 (6195200)
I0307 18:45:22.651834 2997859264 net.cpp:137] Memory required for data: 370074624
I0307 18:45:22.651839 2997859264 layer_factory.hpp:77] Creating layer ip1
I0307 18:45:22.651849 2997859264 net.cpp:84] Creating Layer ip1
I0307 18:45:22.651854 2997859264 net.cpp:406] ip1 <- pool2
I0307 18:45:22.651859 2997859264 net.cpp:380] ip1 -> ip1
I0307 18:45:22.783435 2997859264 net.cpp:122] Setting up ip1
I0307 18:45:22.783458 2997859264 net.cpp:129] Top shape: 256 500 (128000)
I0307 18:45:22.783464 2997859264 net.cpp:137] Memory required for data: 370586624
I0307 18:45:22.783474 2997859264 layer_factory.hpp:77] Creating layer relu1
I0307 18:45:22.783489 2997859264 net.cpp:84] Creating Layer relu1
I0307 18:45:22.783493 2997859264 net.cpp:406] relu1 <- ip1
I0307 18:45:22.783499 2997859264 net.cpp:367] relu1 -> ip1 (in-place)
I0307 18:45:22.783517 2997859264 net.cpp:122] Setting up relu1
I0307 18:45:22.783522 2997859264 net.cpp:129] Top shape: 256 500 (128000)
I0307 18:45:22.783526 2997859264 net.cpp:137] Memory required for data: 371098624
I0307 18:45:22.783531 2997859264 layer_factory.hpp:77] Creating layer drop1
I0307 18:45:22.783540 2997859264 net.cpp:84] Creating Layer drop1
I0307 18:45:22.783543 2997859264 net.cpp:406] drop1 <- ip1
I0307 18:45:22.783548 2997859264 net.cpp:367] drop1 -> ip1 (in-place)
I0307 18:45:22.783557 2997859264 net.cpp:122] Setting up drop1
I0307 18:45:22.783561 2997859264 net.cpp:129] Top shape: 256 500 (128000)
I0307 18:45:22.783566 2997859264 net.cpp:137] Memory required for data: 371610624
I0307 18:45:22.783570 2997859264 layer_factory.hpp:77] Creating layer ip2
I0307 18:45:22.783601 2997859264 net.cpp:84] Creating Layer ip2
I0307 18:45:22.783605 2997859264 net.cpp:406] ip2 <- ip1
I0307 18:45:22.783627 2997859264 net.cpp:380] ip2 -> ip2
I0307 18:45:22.783648 2997859264 net.cpp:122] Setting up ip2
I0307 18:45:22.783651 2997859264 net.cpp:129] Top shape: 256 2 (512)
I0307 18:45:22.783655 2997859264 net.cpp:137] Memory required for data: 371612672
I0307 18:45:22.783661 2997859264 layer_factory.hpp:77] Creating layer loss
I0307 18:45:22.783668 2997859264 net.cpp:84] Creating Layer loss
I0307 18:45:22.783671 2997859264 net.cpp:406] loss <- ip2
I0307 18:45:22.783675 2997859264 net.cpp:406] loss <- label
I0307 18:45:22.783681 2997859264 net.cpp:380] loss -> loss
…
I0307 18:45:22.784111 2997859264 solver.cpp:173] Creating test net (#0) specified by net file: model/train_val_feature_scaled.prototxt
I0307 18:45:22.784154 2997859264 net.cpp:294] The NetState phase (1) differed from the phase (0) specified by a rule in layer data
I0307 18:45:22.784167 2997859264 net.cpp:51] Initializing net from parameters: 
name: "LeNet"
state {
  phase: TEST
}
layer {
  name: "data"
  type: "Data"
  top: "data"
  top: "label"
  include {
    phase: TEST
  }
  transform_param {
    scale: 0.00390625
    mirror: false
    mean_file: "mean.binaryproto"
  }
  data_param {
    source: "val_lmdb"
    batch_size: 256
    backend: LMDB
  }
}
layer {
  name: "conv1"
  type: "Convolution"
  bottom: "data"
  top: "conv1"
  param {
    lr_mult: 1
  }
  param {
    lr_mult: 2
  }
  convolution_param {
    num_output: 20
    kernel_size: 5
    stride: 1
    weight_filler {
      type: "xavier"
    }
    bias_filler {
      type: "constant"
    }
  }
}
layer {
  name: "pool1"
  type: "Pooling"
  bottom: "conv1"
  top: "pool1"
  pooling_param {
    pool: MAX
    kernel_size: 2
    stride: 2
  }
}
layer {
  name: "conv2"
  type: "Convolution"
  bottom: "pool1"
  top: "conv2"
  param {
    lr_mult: 1
  }
  param {
    lr_mult: 2
  }
  convolution_param {
    num_output: 50
    kernel_size: 5
    stride: 1
    weight_filler {
      type: "xavier"
    }
    bias_filler {
      type: "constant"
    }
  }
}
layer {
  name: "pool2"
  type: "Pooling"
  bottom: "conv2"
  top: "pool2"
  pooling_param {
    pool: MAX
    kernel_size: 2
    stride: 2
  }
}
layer {
  name: "ip1"
  type: "InnerProduct"
  bottom: "pool2"
  top: "ip1"
  param {
    lr_mult: 1
  }
  param {
    lr_mult: 2
  }
  inner_product_param {
    num_output: 500
    weight_filler {
      type: "xavier"
    }
    bias_filler {
      type: "constant"
    }
  }
}
layer {
  name: "relu1"
  type: "ReLU"
  bottom: "ip1"
  top: "ip1"
}
layer {
  name: "drop1"
  type: "Dropout"
  bottom: "ip1"
  top: "ip1"
  dropout_param {
    dropout_ratio: 0.5
  }
}
layer {
  name: "ip2"
  type: "InnerProduct"
  bottom: "ip1"
  top: "ip2"
  param {
    lr_mult: 1
  }
  param {
    lr_mult: 2
  }
  inner_product_param {
    num_output: 2
    weight_filler {
      type: "xavier"
    }
    bias_filler {
      type: "constant"
    }
  }
}
layer {
  name: "loss"
  type: "SoftmaxWithLoss"
  bottom: "ip2"
  bottom: "label"
  top: "loss"
}
layer {
  name: "accuracy"
  type: "Accuracy"
  bottom: "ip2"
  bottom: "label"
  top: "accuracy"
  include {
    phase: TEST
  }
}
I0307 18:45:22.784337 2997859264 layer_factory.hpp:77] Creating layer data
I0307 18:45:22.785451 2997859264 db_lmdb.cpp:35] Opened lmdb val_lmdb
I0307 18:45:22.787037 2997859264 net.cpp:84] Creating Layer data
I0307 18:45:22.787070 2997859264 net.cpp:380] data -> data
I0307 18:45:22.787083 2997859264 net.cpp:380] data -> label
I0307 18:45:22.787091 2997859264 data_transformer.cpp:25] Loading mean file from: mean.binaryproto
I0307 18:45:22.787338 2997859264 data_layer.cpp:45] output data size: 256,1,100,100
I0307 18:45:22.806149 2997859264 net.cpp:122] Setting up data
I0307 18:45:22.806180 2997859264 net.cpp:129] Top shape: 256 1 100 100 (2560000)
I0307 18:45:22.806200 2997859264 net.cpp:129] Top shape: 256 (256)
I0307 18:45:22.806203 2997859264 net.cpp:137] Memory required for data: 10241024
I0307 18:45:22.806210 2997859264 layer_factory.hpp:77] Creating layer label_data_1_split
I0307 18:45:22.806218 2997859264 net.cpp:84] Creating Layer label_data_1_split
I0307 18:45:22.806223 2997859264 net.cpp:406] label_data_1_split <- label
I0307 18:45:22.806228 2997859264 net.cpp:380] label_data_1_split -> label_data_1_split_0
I0307 18:45:22.806236 2997859264 net.cpp:380] label_data_1_split -> label_data_1_split_1
I0307 18:45:22.806244 2997859264 net.cpp:122] Setting up label_data_1_split
I0307 18:45:22.806251 2997859264 net.cpp:129] Top shape: 256 (256)
I0307 18:45:22.806274 2997859264 net.cpp:129] Top shape: 256 (256)
I0307 18:45:22.806279 2997859264 net.cpp:137] Memory required for data: 10243072
I0307 18:45:22.806283 2997859264 layer_factory.hpp:77] Creating layer conv1
I0307 18:45:22.806293 2997859264 net.cpp:84] Creating Layer conv1
I0307 18:45:22.806298 2997859264 net.cpp:406] conv1 <- data
I0307 18:45:22.806303 2997859264 net.cpp:380] conv1 -> conv1
I0307 18:45:22.806365 2997859264 net.cpp:122] Setting up conv1
I0307 18:45:22.806372 2997859264 net.cpp:129] Top shape: 256 20 96 96 (47185920)
I0307 18:45:22.806382 2997859264 net.cpp:137] Memory required for data: 198986752
I0307 18:45:22.806391 2997859264 layer_factory.hpp:77] Creating layer pool1
I0307 18:45:22.806396 2997859264 net.cpp:84] Creating Layer pool1
I0307 18:45:22.806401 2997859264 net.cpp:406] pool1 <- conv1
I0307 18:45:22.806406 2997859264 net.cpp:380] pool1 -> pool1
I0307 18:45:22.806414 2997859264 net.cpp:122] Setting up pool1
I0307 18:45:22.806418 2997859264 net.cpp:129] Top shape: 256 20 48 48 (11796480)
I0307 18:45:22.806426 2997859264 net.cpp:137] Memory required for data: 246172672
I0307 18:45:22.806429 2997859264 layer_factory.hpp:77] Creating layer conv2
I0307 18:45:22.806437 2997859264 net.cpp:84] Creating Layer conv2
I0307 18:45:22.806445 2997859264 net.cpp:406] conv2 <- pool1
I0307 18:45:22.806454 2997859264 net.cpp:380] conv2 -> conv2
I0307 18:45:22.806728 2997859264 net.cpp:122] Setting up conv2
I0307 18:45:22.806735 2997859264 net.cpp:129] Top shape: 256 50 44 44 (24780800)
I0307 18:45:22.806751 2997859264 net.cpp:137] Memory required for data: 345295872
I0307 18:45:22.806757 2997859264 layer_factory.hpp:77] Creating layer pool2
I0307 18:45:22.806762 2997859264 net.cpp:84] Creating Layer pool2
I0307 18:45:22.806766 2997859264 net.cpp:406] pool2 <- conv2
I0307 18:45:22.806771 2997859264 net.cpp:380] pool2 -> pool2
I0307 18:45:22.806777 2997859264 net.cpp:122] Setting up pool2
I0307 18:45:22.806782 2997859264 net.cpp:129] Top shape: 256 50 22 22 (6195200)
I0307 18:45:22.806787 2997859264 net.cpp:137] Memory required for data: 370076672
I0307 18:45:22.806792 2997859264 layer_factory.hpp:77] Creating layer ip1
I0307 18:45:22.806798 2997859264 net.cpp:84] Creating Layer ip1
I0307 18:45:22.806802 2997859264 net.cpp:406] ip1 <- pool2
I0307 18:45:22.806808 2997859264 net.cpp:380] ip1 -> ip1
I0307 18:45:22.927856 2997859264 net.cpp:122] Setting up ip1
I0307 18:45:22.927881 2997859264 net.cpp:129] Top shape: 256 500 (128000)
I0307 18:45:22.927886 2997859264 net.cpp:137] Memory required for data: 370588672
I0307 18:45:22.927896 2997859264 layer_factory.hpp:77] Creating layer relu1
I0307 18:45:22.927904 2997859264 net.cpp:84] Creating Layer relu1
I0307 18:45:22.927908 2997859264 net.cpp:406] relu1 <- ip1
I0307 18:45:22.927914 2997859264 net.cpp:367] relu1 -> ip1 (in-place)
I0307 18:45:22.927922 2997859264 net.cpp:122] Setting up relu1
I0307 18:45:22.927935 2997859264 net.cpp:129] Top shape: 256 500 (128000)
I0307 18:45:22.927942 2997859264 net.cpp:137] Memory required for data: 371100672
I0307 18:45:22.927945 2997859264 layer_factory.hpp:77] Creating layer drop1
I0307 18:45:22.927953 2997859264 net.cpp:84] Creating Layer drop1
I0307 18:45:22.927996 2997859264 net.cpp:406] drop1 <- ip1
I0307 18:45:22.928014 2997859264 net.cpp:367] drop1 -> ip1 (in-place)
I0307 18:45:22.928027 2997859264 net.cpp:122] Setting up drop1
I0307 18:45:22.928030 2997859264 net.cpp:129] Top shape: 256 500 (128000)
I0307 18:45:22.928035 2997859264 net.cpp:137] Memory required for data: 371612672
I0307 18:45:22.928040 2997859264 layer_factory.hpp:77] Creating layer ip2
I0307 18:45:22.928046 2997859264 net.cpp:84] Creating Layer ip2
I0307 18:45:22.928050 2997859264 net.cpp:406] ip2 <- ip1
I0307 18:45:22.928061 2997859264 net.cpp:380] ip2 -> ip2
I0307 18:45:22.928081 2997859264 net.cpp:122] Setting up ip2
I0307 18:45:22.928086 2997859264 net.cpp:129] Top shape: 256 2 (512)
I0307 18:45:22.928099 2997859264 net.cpp:137] Memory required for data: 371614720
I0307 18:45:22.928104 2997859264 layer_factory.hpp:77] Creating layer ip2_ip2_0_split
I0307 18:45:22.928122 2997859264 net.cpp:84] Creating Layer ip2_ip2_0_split
I0307 18:45:22.928125 2997859264 net.cpp:406] ip2_ip2_0_split <- ip2
I0307 18:45:22.928129 2997859264 net.cpp:380] ip2_ip2_0_split -> ip2_ip2_0_split_0
I0307 18:45:22.928134 2997859264 net.cpp:380] ip2_ip2_0_split -> ip2_ip2_0_split_1
I0307 18:45:22.928140 2997859264 net.cpp:122] Setting up ip2_ip2_0_split
I0307 18:45:22.928145 2997859264 net.cpp:129] Top shape: 256 2 (512)
I0307 18:45:22.928149 2997859264 net.cpp:129] Top shape: 256 2 (512)
I0307 18:45:22.928154 2997859264 net.cpp:137] Memory required for data: 371618816
I0307 18:45:22.928158 2997859264 layer_factory.hpp:77] Creating layer loss
I0307 18:45:22.928164 2997859264 net.cpp:84] Creating Layer loss
I0307 18:45:22.928167 2997859264 net.cpp:406] loss <- ip2_ip2_0_split_0
I0307 18:45:22.928171 2997859264 net.cpp:406] loss <- label_data_1_split_0
I0307 18:45:22.928185 2997859264 net.cpp:380] loss -> loss
…
