…
I0301 01:12:50.538534  6652 net.cpp:296] The NetState phase (0) differed from the phase (1) specified by a rule in layer accuracy
I0301 01:12:50.538534  6652 net.cpp:53] Initializing net from parameters: 
name: "LeNet"
state {
  phase: TRAIN
  level: 0
  stage: ""
}
layer {
  name: "data"
  type: "Data"
  top: "data"
  top: "label"
  include {
    phase: TRAIN
  }
  transform_param {
    mirror: true
    crop_size: 50
    mean_file: "mean.binaryproto"
  }
  data_param {
    source: "lmdb/train_lmdb"
    batch_size: 100
    backend: LMDB
  }
}
layer {
  name: "conv1"
  type: "Convolution"
  bottom: "data"
  top: "conv1"
  param {
    lr_mult: 1
  }
  param {
    lr_mult: 2
  }
  convolution_param {
    num_output: 20
    kernel_size: 5
    stride: 1
    weight_filler {
      type: "xavier"
    }
    bias_filler {
      type: "constant"
    }
  }
}
layer {
  name: "pool1"
  type: "Pooling"
  bottom: "conv1"
  top: "pool1"
  pooling_param {
    pool: MAX
    kernel_size: 2
    stride: 2
  }
}
layer {
  name: "conv2"
  type: "Convolution"
  bottom: "pool1"
  top: "conv2"
  param {
    lr_mult: 1
  }
  param {
    lr_mult: 2
  }
  convolution_param {
    num_output: 50
    kernel_size: 5
    stride: 1
    weight_filler {
      type: "xavier"
    }
    bias_filler {
      type: "constant"
    }
  }
}
layer {
  name: "pool2"
  type: "Pooling"
  bottom: "conv2"
  top: "pool2"
  pooling_param {
    pool: MAX
    kernel_size: 2
    stride: 2
  }
}
layer {
  name: "ip1"
  type: "InnerProduct"
  bottom: "pool2"
  top: "ip1"
  param {
    lr_mult: 1
  }
  param {
    lr_mult: 2
  }
  inner_product_param {
    num_output: 500
    weight_filler {
      type: "xavier"
    }
    bias_filler {
      type: "constant"
    }
  }
}
layer {
  name: "relu1"
  type: "ReLU"
  bottom: "ip1"
  top: "ip1"
}
layer {
  name: "ip2"
  type: "InnerProduct"
  bottom: "ip1"
  top: "ip2"
  param {
    lr_mult: 1
  }
  param {
    lr_mult: 2
  }
  inner_product_param {
    num_output: 10
    weight_filler {
      type: "xavier"
    }
    bias_filler {
      type: "constant"
    }
  }
}
layer {
  name: "loss"
  type: "SoftmaxWithLoss"
  bottom: "ip2"
  bottom: "label"
  top: "loss"
}
I0301 01:12:50.538534  6652 layer_factory.cpp:58] Creating layer data
I0301 01:12:50.538534  6652 db_lmdb.cpp:40] Opened lmdb lmdb/train_lmdb
I0301 01:12:50.538534  6652 net.cpp:86] Creating Layer data
I0301 01:12:50.538534  6652 net.cpp:382] data -> data
I0301 01:12:50.538534  6652 net.cpp:382] data -> label
I0301 01:12:50.538534  6652 data_transformer.cpp:25] Loading mean file from: mean.binaryproto
I0301 01:12:50.554139  6652 common.cpp:36] System entropy source not available, using fallback algorithm to generate seed instead.
I0301 01:12:50.554139  6652 data_layer.cpp:45] output data size: 100,3,50,50
I0301 01:12:50.554139  6652 net.cpp:124] Setting up data
I0301 01:12:50.554139  6652 net.cpp:131] Top shape: 100 3 50 50 (750000)
I0301 01:12:50.569767  6652 net.cpp:131] Top shape: 100 (100)
I0301 01:12:50.569767  6652 net.cpp:139] Memory required for data: 3000400
I0301 01:12:50.569767  6652 layer_factory.cpp:58] Creating layer conv1
I0301 01:12:50.569767  6652 net.cpp:86] Creating Layer conv1
I0301 01:12:50.569767  6652 net.cpp:408] conv1 <- data
I0301 01:12:50.569767  6652 net.cpp:382] conv1 -> conv1
I0301 01:12:50.569767  6652 net.cpp:124] Setting up conv1
I0301 01:12:50.569767  6652 net.cpp:131] Top shape: 100 20 46 46 (4232000)
I0301 01:12:50.569767  6652 net.cpp:139] Memory required for data: 19928400
I0301 01:12:50.569767  6652 layer_factory.cpp:58] Creating layer pool1
I0301 01:12:50.569767  6652 net.cpp:86] Creating Layer pool1
I0301 01:12:50.569767  6652 net.cpp:408] pool1 <- conv1
I0301 01:12:50.569767  6652 net.cpp:382] pool1 -> pool1
I0301 01:12:50.569767  6652 net.cpp:124] Setting up pool1
I0301 01:12:50.569767  6652 net.cpp:131] Top shape: 100 20 23 23 (1058000)
I0301 01:12:50.569767  6652 net.cpp:139] Memory required for data: 24160400
I0301 01:12:50.585393  6652 layer_factory.cpp:58] Creating layer conv2
I0301 01:12:50.585393  6652 net.cpp:86] Creating Layer conv2
I0301 01:12:50.585393  6652 net.cpp:408] conv2 <- pool1
I0301 01:12:50.585393  6652 net.cpp:382] conv2 -> conv2
I0301 01:12:50.585393  6652 net.cpp:124] Setting up conv2
I0301 01:12:50.601013  6652 net.cpp:131] Top shape: 100 50 19 19 (1805000)
I0301 01:12:50.602526  6652 net.cpp:139] Memory required for data: 31380400
I0301 01:12:50.603024  6652 layer_factory.cpp:58] Creating layer pool2
I0301 01:12:50.604023  6652 net.cpp:86] Creating Layer pool2
I0301 01:12:50.604524  6652 net.cpp:408] pool2 <- conv2
I0301 01:12:50.605523  6652 net.cpp:382] pool2 -> pool2
I0301 01:12:50.606022  6652 net.cpp:124] Setting up pool2
I0301 01:12:50.607523  6652 net.cpp:131] Top shape: 100 50 10 10 (500000)
I0301 01:12:50.607523  6652 net.cpp:139] Memory required for data: 33380400
I0301 01:12:50.607523  6652 layer_factory.cpp:58] Creating layer ip1
I0301 01:12:50.607523  6652 net.cpp:86] Creating Layer ip1
I0301 01:12:50.607523  6652 net.cpp:408] ip1 <- pool2
I0301 01:12:50.607523  6652 net.cpp:382] ip1 -> ip1
I0301 01:12:50.638790  6652 net.cpp:124] Setting up ip1
I0301 01:12:50.638790  6652 net.cpp:131] Top shape: 100 500 (50000)
I0301 01:12:50.638790  6652 net.cpp:139] Memory required for data: 33580400
I0301 01:12:50.638790  6652 layer_factory.cpp:58] Creating layer relu1
I0301 01:12:50.638790  6652 net.cpp:86] Creating Layer relu1
I0301 01:12:50.638790  6652 net.cpp:408] relu1 <- ip1
I0301 01:12:50.638790  6652 net.cpp:369] relu1 -> ip1 (in-place)
I0301 01:12:50.638790  6652 net.cpp:124] Setting up relu1
I0301 01:12:50.638790  6652 net.cpp:131] Top shape: 100 500 (50000)
I0301 01:12:50.638790  6652 net.cpp:139] Memory required for data: 33780400
I0301 01:12:50.654408  6652 layer_factory.cpp:58] Creating layer ip2
I0301 01:12:50.654408  6652 net.cpp:86] Creating Layer ip2
I0301 01:12:50.654408  6652 net.cpp:408] ip2 <- ip1
I0301 01:12:50.654408  6652 net.cpp:382] ip2 -> ip2
I0301 01:12:50.654408  6652 net.cpp:124] Setting up ip2
I0301 01:12:50.654408  6652 net.cpp:131] Top shape: 100 10 (1000)
I0301 01:12:50.654408  6652 net.cpp:139] Memory required for data: 33784400
I0301 01:12:50.654408  6652 layer_factory.cpp:58] Creating layer loss
I0301 01:12:50.654408  6652 net.cpp:86] Creating Layer loss
I0301 01:12:50.654408  6652 net.cpp:408] loss <- ip2
I0301 01:12:50.654408  6652 net.cpp:408] loss <- label
I0301 01:12:50.654408  6652 net.cpp:382] loss -> loss
I0301 01:12:50.654408  6652 layer_factory.cpp:58] Creating layer loss
…
I0301 01:12:50.670032  6652 solver.cpp:173] Creating test net (#0) specified by net file: model/train_val.prototxt
I0301 01:12:50.685658  6652 net.cpp:296] The NetState phase (1) differed from the phase (0) specified by a rule in layer data
I0301 01:12:50.685658  6652 net.cpp:53] Initializing net from parameters: 
name: "LeNet"
state {
  phase: TEST
}
layer {
  name: "data"
  type: "Data"
  top: "data"
  top: "label"
  include {
    phase: TEST
  }
  transform_param {
    mirror: false
    crop_size: 50
    mean_file: "mean.binaryproto"
  }
  data_param {
    source: "lmdb/val_lmdb"
    batch_size: 10
    backend: LMDB
  }
}
layer {
  name: "conv1"
  type: "Convolution"
  bottom: "data"
  top: "conv1"
  param {
    lr_mult: 1
  }
  param {
    lr_mult: 2
  }
  convolution_param {
    num_output: 20
    kernel_size: 5
    stride: 1
    weight_filler {
      type: "xavier"
    }
    bias_filler {
      type: "constant"
    }
  }
}
layer {
  name: "pool1"
  type: "Pooling"
  bottom: "conv1"
  top: "pool1"
  pooling_param {
    pool: MAX
    kernel_size: 2
    stride: 2
  }
}
layer {
  name: "conv2"
  type: "Convolution"
  bottom: "pool1"
  top: "conv2"
  param {
    lr_mult: 1
  }
  param {
    lr_mult: 2
  }
  convolution_param {
    num_output: 50
    kernel_size: 5
    stride: 1
    weight_filler {
      type: "xavier"
    }
    bias_filler {
      type: "constant"
    }
  }
}
layer {
  name: "pool2"
  type: "Pooling"
  bottom: "conv2"
  top: "pool2"
  pooling_param {
    pool: MAX
    kernel_size: 2
    stride: 2
  }
}
layer {
  name: "ip1"
  type: "InnerProduct"
  bottom: "pool2"
  top: "ip1"
  param {
    lr_mult: 1
  }
  param {
    lr_mult: 2
  }
  inner_product_param {
    num_output: 500
    weight_filler {
      type: "xavier"
    }
    bias_filler {
      type: "constant"
    }
  }
}
layer {
  name: "relu1"
  type: "ReLU"
  bottom: "ip1"
  top: "ip1"
}
layer {
  name: "ip2"
  type: "InnerProduct"
  bottom: "ip1"
  top: "ip2"
  param {
    lr_mult: 1
  }
  param {
    lr_mult: 2
  }
  inner_product_param {
    num_output: 10
    weight_filler {
      type: "xavier"
    }
    bias_filler {
      type: "constant"
    }
  }
}
layer {
  name: "loss"
  type: "SoftmaxWithLoss"
  bottom: "ip2"
  bottom: "label"
  top: "loss"
}
layer {
  name: "accuracy"
  type: "Accuracy"
  bottom: "ip2"
  bottom: "label"
  top: "accuracy"
  include {
    phase: TEST
  }
}
I0301 01:12:50.685658  6652 layer_factory.cpp:58] Creating layer data
I0301 01:12:50.703299  6652 db_lmdb.cpp:40] Opened lmdb lmdb/val_lmdb
I0301 01:12:50.703299  6652 net.cpp:86] Creating Layer data
I0301 01:12:50.704298  6652 net.cpp:382] data -> data
I0301 01:12:50.704797  6652 net.cpp:382] data -> label
I0301 01:12:50.705296  6652 data_transformer.cpp:25] Loading mean file from: mean.binaryproto
I0301 01:12:50.706297  6652 data_layer.cpp:45] output data size: 10,3,50,50
I0301 01:12:50.706799  6652 net.cpp:124] Setting up data
I0301 01:12:50.707298  6652 net.cpp:131] Top shape: 10 3 50 50 (75000)
I0301 01:12:50.707798  6652 net.cpp:131] Top shape: 10 (10)
I0301 01:12:50.707798  6652 net.cpp:139] Memory required for data: 300040
I0301 01:12:50.707798  6652 layer_factory.cpp:58] Creating layer label_data_1_split
I0301 01:12:50.707798  6652 net.cpp:86] Creating Layer label_data_1_split
I0301 01:12:50.707798  6652 net.cpp:408] label_data_1_split <- label
I0301 01:12:50.707798  6652 net.cpp:382] label_data_1_split -> label_data_1_split_0
I0301 01:12:50.707798  6652 net.cpp:382] label_data_1_split -> label_data_1_split_1
I0301 01:12:50.707798  6652 net.cpp:124] Setting up label_data_1_split
I0301 01:12:50.707798  6652 net.cpp:131] Top shape: 10 (10)
I0301 01:12:50.707798  6652 net.cpp:131] Top shape: 10 (10)
I0301 01:12:50.707798  6652 net.cpp:139] Memory required for data: 300120
I0301 01:12:50.707798  6652 layer_factory.cpp:58] Creating layer conv1
I0301 01:12:50.707798  6652 net.cpp:86] Creating Layer conv1
I0301 01:12:50.707798  6652 net.cpp:408] conv1 <- data
I0301 01:12:50.707798  6652 net.cpp:382] conv1 -> conv1
I0301 01:12:50.707798  6652 net.cpp:124] Setting up conv1
I0301 01:12:50.707798  6652 net.cpp:131] Top shape: 10 20 46 46 (423200)
I0301 01:12:50.723434  6652 net.cpp:139] Memory required for data: 1992920
I0301 01:12:50.723434  6652 layer_factory.cpp:58] Creating layer pool1
I0301 01:12:50.723434  6652 net.cpp:86] Creating Layer pool1
I0301 01:12:50.723434  6652 net.cpp:408] pool1 <- conv1
I0301 01:12:50.723434  6652 net.cpp:382] pool1 -> pool1
I0301 01:12:50.723434  6652 net.cpp:124] Setting up pool1
I0301 01:12:50.723434  6652 net.cpp:131] Top shape: 10 20 23 23 (105800)
I0301 01:12:50.723434  6652 net.cpp:139] Memory required for data: 2416120
I0301 01:12:50.739058  6652 layer_factory.cpp:58] Creating layer conv2
I0301 01:12:50.739058  6652 net.cpp:86] Creating Layer conv2
I0301 01:12:50.739058  6652 net.cpp:408] conv2 <- pool1
I0301 01:12:50.739058  6652 net.cpp:382] conv2 -> conv2
I0301 01:12:50.739058  6652 net.cpp:124] Setting up conv2
I0301 01:12:50.739058  6652 net.cpp:131] Top shape: 10 50 19 19 (180500)
I0301 01:12:50.739058  6652 net.cpp:139] Memory required for data: 3138120
I0301 01:12:50.739058  6652 layer_factory.cpp:58] Creating layer pool2
I0301 01:12:50.739058  6652 net.cpp:86] Creating Layer pool2
I0301 01:12:50.739058  6652 net.cpp:408] pool2 <- conv2
I0301 01:12:50.739058  6652 net.cpp:382] pool2 -> pool2
I0301 01:12:50.739058  6652 net.cpp:124] Setting up pool2
I0301 01:12:50.739058  6652 net.cpp:131] Top shape: 10 50 10 10 (50000)
I0301 01:12:50.739058  6652 net.cpp:139] Memory required for data: 3338120
I0301 01:12:50.739058  6652 layer_factory.cpp:58] Creating layer ip1
I0301 01:12:50.739058  6652 net.cpp:86] Creating Layer ip1
I0301 01:12:50.739058  6652 net.cpp:408] ip1 <- pool2
I0301 01:12:50.739058  6652 net.cpp:382] ip1 -> ip1
I0301 01:12:50.770314  6652 net.cpp:124] Setting up ip1
I0301 01:12:50.770314  6652 net.cpp:131] Top shape: 10 500 (5000)
I0301 01:12:50.770314  6652 net.cpp:139] Memory required for data: 3358120
I0301 01:12:50.770314  6652 layer_factory.cpp:58] Creating layer relu1
I0301 01:12:50.770314  6652 net.cpp:86] Creating Layer relu1
I0301 01:12:50.770314  6652 net.cpp:408] relu1 <- ip1
I0301 01:12:50.770314  6652 net.cpp:369] relu1 -> ip1 (in-place)
I0301 01:12:50.770314  6652 net.cpp:124] Setting up relu1
I0301 01:12:50.770314  6652 net.cpp:131] Top shape: 10 500 (5000)
I0301 01:12:50.770314  6652 net.cpp:139] Memory required for data: 3378120
I0301 01:12:50.770314  6652 layer_factory.cpp:58] Creating layer ip2
I0301 01:12:50.785933  6652 net.cpp:86] Creating Layer ip2
I0301 01:12:50.785933  6652 net.cpp:408] ip2 <- ip1
I0301 01:12:50.785933  6652 net.cpp:382] ip2 -> ip2
I0301 01:12:50.785933  6652 net.cpp:124] Setting up ip2
I0301 01:12:50.785933  6652 net.cpp:131] Top shape: 10 10 (100)
I0301 01:12:50.785933  6652 net.cpp:139] Memory required for data: 3378520
I0301 01:12:50.785933  6652 layer_factory.cpp:58] Creating layer ip2_ip2_0_split
I0301 01:12:50.785933  6652 net.cpp:86] Creating Layer ip2_ip2_0_split
I0301 01:12:50.785933  6652 net.cpp:408] ip2_ip2_0_split <- ip2
I0301 01:12:50.785933  6652 net.cpp:382] ip2_ip2_0_split -> ip2_ip2_0_split_0
I0301 01:12:50.785933  6652 net.cpp:382] ip2_ip2_0_split -> ip2_ip2_0_split_1
I0301 01:12:50.785933  6652 net.cpp:124] Setting up ip2_ip2_0_split
I0301 01:12:50.785933  6652 net.cpp:131] Top shape: 10 10 (100)
I0301 01:12:50.785933  6652 net.cpp:131] Top shape: 10 10 (100)
I0301 01:12:50.785933  6652 net.cpp:139] Memory required for data: 3379320
I0301 01:12:50.785933  6652 layer_factory.cpp:58] Creating layer loss
I0301 01:12:50.785933  6652 net.cpp:86] Creating Layer loss
I0301 01:12:50.803067  6652 net.cpp:408] loss <- ip2_ip2_0_split_0
I0301 01:12:50.808073  6652 net.cpp:408] loss <- label_data_1_split_0
I0301 01:12:50.808073  6652 net.cpp:382] loss -> loss
…
