…
I0303 21:38:37.390444   572 net.cpp:296] The NetState phase (0) differed from the phase (1) specified by a rule in layer data
I0303 21:38:37.390506   572 net.cpp:296] The NetState phase (0) differed from the phase (1) specified by a rule in layer accuracy
I0303 21:38:37.391070   572 net.cpp:53] Initializing net from parameters: 
name: "LeNet"
state {
  phase: TRAIN
  level: 0
  stage: ""
}
layer {
  name: "data"
  type: "Data"
  top: "data"
  top: "label"
  include {
    phase: TRAIN
  }
  transform_param {
    scale: 0.00390625
    mirror: false
    mean_file: "mean.binaryproto"
  }
  data_param {
    source: "train_lmdb"
    batch_size: 256
    backend: LMDB
  }
}
layer {
  name: "conv1"
  type: "Convolution"
  bottom: "data"
  top: "conv1"
  param {
    lr_mult: 1
  }
  param {
    lr_mult: 2
  }
  convolution_param {
    num_output: 20
    kernel_size: 5
    stride: 1
    weight_filler {
      type: "xavier"
    }
    bias_filler {
      type: "constant"
    }
  }
}
layer {
  name: "pool1"
  type: "Pooling"
  bottom: "conv1"
  top: "pool1"
  pooling_param {
    pool: MAX
    kernel_size: 2
    stride: 2
  }
}
layer {
  name: "conv2"
  type: "Convolution"
  bottom: "pool1"
  top: "conv2"
  param {
    lr_mult: 1
  }
  param {
    lr_mult: 2
  }
  convolution_param {
    num_output: 50
    kernel_size: 5
    stride: 1
    weight_filler {
      type: "xavier"
    }
    bias_filler {
      type: "constant"
    }
  }
}
layer {
  name: "pool2"
  type: "Pooling"
  bottom: "conv2"
  top: "pool2"
  pooling_param {
    pool: MAX
    kernel_size: 2
    stride: 2
  }
}
layer {
  name: "ip1"
  type: "InnerProduct"
  bottom: "pool2"
  top: "ip1"
  param {
    lr_mult: 1
  }
  param {
    lr_mult: 2
  }
  inner_product_param {
    num_output: 500
    weight_filler {
      type: "xavier"
    }
    bias_filler {
      type: "constant"
    }
  }
}
layer {
  name: "relu1"
  type: "ReLU"
  bottom: "ip1"
  top: "ip1"
}
layer {
  name: "drop1"
  type: "Dropout"
  bottom: "ip1"
  top: "ip1"
  dropout_param {
    dropout_ratio: 0.5
  }
}
layer {
  name: "ip2"
  type: "InnerProduct"
  bottom: "ip1"
  top: "ip2"
  param {
    lr_mult: 1
  }
  param {
    lr_mult: 2
  }
  inner_product_param {
    num_output: 2
    weight_filler {
      type: "xavier"
    }
    bias_filler {
      type: "constant"
    }
  }
}
layer {
  name: "loss"
  type: "SoftmaxWithLoss"
  bottom: "ip2"
  bottom: "label"
  top: "loss"
}
I0303 21:38:37.391181   572 layer_factory.hpp:77] Creating layer data
I0303 21:38:37.397038   572 db_lmdb.cpp:35] Opened lmdb train_lmdb
I0303 21:38:37.397938   572 net.cpp:86] Creating Layer data
I0303 21:38:37.397997   572 net.cpp:382] data -> data
I0303 21:38:37.398072   572 net.cpp:382] data -> label
I0303 21:38:37.398195   572 data_transformer.cpp:25] Loading mean file from: mean.binaryproto
I0303 21:38:37.400435   572 data_layer.cpp:45] output data size: 256,1,50,50
I0303 21:38:37.401248   572 net.cpp:124] Setting up data
I0303 21:38:37.401300   572 net.cpp:131] Top shape: 256 1 50 50 (640000)
I0303 21:38:37.401309   572 net.cpp:131] Top shape: 256 (256)
I0303 21:38:37.401649   572 net.cpp:139] Memory required for data: 2561024
I0303 21:38:37.402863   572 layer_factory.hpp:77] Creating layer conv1
I0303 21:38:37.403707   572 net.cpp:86] Creating Layer conv1
I0303 21:38:37.403741   572 net.cpp:408] conv1 <- data
I0303 21:38:37.403759   572 net.cpp:382] conv1 -> conv1
I0303 21:38:37.403959   572 net.cpp:124] Setting up conv1
I0303 21:38:37.404112   572 net.cpp:131] Top shape: 256 20 46 46 (10833920)
I0303 21:38:37.404170   572 net.cpp:139] Memory required for data: 45896704
I0303 21:38:37.404274   572 layer_factory.hpp:77] Creating layer pool1
I0303 21:38:37.404289   572 net.cpp:86] Creating Layer pool1
I0303 21:38:37.404294   572 net.cpp:408] pool1 <- conv1
I0303 21:38:37.404299   572 net.cpp:382] pool1 -> pool1
I0303 21:38:37.404319   572 net.cpp:124] Setting up pool1
I0303 21:38:37.404326   572 net.cpp:131] Top shape: 256 20 23 23 (2708480)
I0303 21:38:37.404331   572 net.cpp:139] Memory required for data: 56730624
I0303 21:38:37.404337   572 layer_factory.hpp:77] Creating layer conv2
I0303 21:38:37.404412   572 net.cpp:86] Creating Layer conv2
I0303 21:38:37.404423   572 net.cpp:408] conv2 <- pool1
I0303 21:38:37.404430   572 net.cpp:382] conv2 -> conv2
I0303 21:38:37.405607   572 net.cpp:124] Setting up conv2
I0303 21:38:37.405638   572 net.cpp:131] Top shape: 256 50 19 19 (4620800)
I0303 21:38:37.405659   572 net.cpp:139] Memory required for data: 75213824
I0303 21:38:37.405669   572 layer_factory.hpp:77] Creating layer pool2
I0303 21:38:37.405733   572 net.cpp:86] Creating Layer pool2
I0303 21:38:37.405761   572 net.cpp:408] pool2 <- conv2
I0303 21:38:37.405769   572 net.cpp:382] pool2 -> pool2
I0303 21:38:37.405907   572 net.cpp:124] Setting up pool2
I0303 21:38:37.405936   572 net.cpp:131] Top shape: 256 50 10 10 (1280000)
I0303 21:38:37.405941   572 net.cpp:139] Memory required for data: 80333824
I0303 21:38:37.405944   572 layer_factory.hpp:77] Creating layer ip1
I0303 21:38:37.406292   572 net.cpp:86] Creating Layer ip1
I0303 21:38:37.406306   572 net.cpp:408] ip1 <- pool2
I0303 21:38:37.406318   572 net.cpp:382] ip1 -> ip1
I0303 21:38:37.432814   572 net.cpp:124] Setting up ip1
I0303 21:38:37.432868   572 net.cpp:131] Top shape: 256 500 (128000)
I0303 21:38:37.432873   572 net.cpp:139] Memory required for data: 80845824
I0303 21:38:37.432885   572 layer_factory.hpp:77] Creating layer relu1
I0303 21:38:37.432893   572 net.cpp:86] Creating Layer relu1
I0303 21:38:37.432898   572 net.cpp:408] relu1 <- ip1
I0303 21:38:37.432904   572 net.cpp:369] relu1 -> ip1 (in-place)
I0303 21:38:37.432914   572 net.cpp:124] Setting up relu1
I0303 21:38:37.432919   572 net.cpp:131] Top shape: 256 500 (128000)
I0303 21:38:37.432921   572 net.cpp:139] Memory required for data: 81357824
I0303 21:38:37.432924   572 layer_factory.hpp:77] Creating layer drop1
I0303 21:38:37.433024   572 net.cpp:86] Creating Layer drop1
I0303 21:38:37.433059   572 net.cpp:408] drop1 <- ip1
I0303 21:38:37.433069   572 net.cpp:369] drop1 -> ip1 (in-place)
I0303 21:38:37.433081   572 net.cpp:124] Setting up drop1
I0303 21:38:37.433089   572 net.cpp:131] Top shape: 256 500 (128000)
I0303 21:38:37.433094   572 net.cpp:139] Memory required for data: 81869824
I0303 21:38:37.433097   572 layer_factory.hpp:77] Creating layer ip2
I0303 21:38:37.433120   572 net.cpp:86] Creating Layer ip2
I0303 21:38:37.433169   572 net.cpp:408] ip2 <- ip1
I0303 21:38:37.433185   572 net.cpp:382] ip2 -> ip2
I0303 21:38:37.433472   572 net.cpp:124] Setting up ip2
I0303 21:38:37.433593   572 net.cpp:131] Top shape: 256 2 (512)
I0303 21:38:37.433604   572 net.cpp:139] Memory required for data: 81871872
I0303 21:38:37.433620   572 layer_factory.hpp:77] Creating layer loss
I0303 21:38:37.433934   572 net.cpp:86] Creating Layer loss
I0303 21:38:37.433949   572 net.cpp:408] loss <- ip2
I0303 21:38:37.433959   572 net.cpp:408] loss <- label
I0303 21:38:37.434082   572 net.cpp:382] loss -> loss
I0303 21:38:37.434115   572 layer_factory.hpp:77] Creating layer loss
…
I0303 21:38:37.438704   572 solver.cpp:173] Creating test net (#0) specified by net file: model/train_val_feature_scaled.prototxt
I0303 21:38:37.439005   572 net.cpp:296] The NetState phase (1) differed from the phase (0) specified by a rule in layer data
I0303 21:38:37.439574   572 net.cpp:53] Initializing net from parameters: 
name: "LeNet"
state {
  phase: TEST
}
layer {
  name: "data"
  type: "Data"
  top: "data"
  top: "label"
  include {
    phase: TEST
  }
  transform_param {
    scale: 0.00390625
    mirror: false
    mean_file: "mean.binaryproto"
  }
  data_param {
    source: "val_lmdb"
    batch_size: 20
    backend: LMDB
  }
}
layer {
  name: "conv1"
  type: "Convolution"
  bottom: "data"
  top: "conv1"
  param {
    lr_mult: 1
  }
  param {
    lr_mult: 2
  }
  convolution_param {
    num_output: 20
    kernel_size: 5
    stride: 1
    weight_filler {
      type: "xavier"
    }
    bias_filler {
      type: "constant"
    }
  }
}
layer {
  name: "pool1"
  type: "Pooling"
  bottom: "conv1"
  top: "pool1"
  pooling_param {
    pool: MAX
    kernel_size: 2
    stride: 2
  }
}
layer {
  name: "conv2"
  type: "Convolution"
  bottom: "pool1"
  top: "conv2"
  param {
    lr_mult: 1
  }
  param {
    lr_mult: 2
  }
  convolution_param {
    num_output: 50
    kernel_size: 5
    stride: 1
    weight_filler {
      type: "xavier"
    }
    bias_filler {
      type: "constant"
    }
  }
}
layer {
  name: "pool2"
  type: "Pooling"
  bottom: "conv2"
  top: "pool2"
  pooling_param {
    pool: MAX
    kernel_size: 2
    stride: 2
  }
}
layer {
  name: "ip1"
  type: "InnerProduct"
  bottom: "pool2"
  top: "ip1"
  param {
    lr_mult: 1
  }
  param {
    lr_mult: 2
  }
  inner_product_param {
    num_output: 500
    weight_filler {
      type: "xavier"
    }
    bias_filler {
      type: "constant"
    }
  }
}
layer {
  name: "relu1"
  type: "ReLU"
  bottom: "ip1"
  top: "ip1"
}
layer {
  name: "drop1"
  type: "Dropout"
  bottom: "ip1"
  top: "ip1"
  dropout_param {
    dropout_ratio: 0.5
  }
}
layer {
  name: "ip2"
  type: "InnerProduct"
  bottom: "ip1"
  top: "ip2"
  param {
    lr_mult: 1
  }
  param {
    lr_mult: 2
  }
  inner_product_param {
    num_output: 2
    weight_filler {
      type: "xavier"
    }
    bias_filler {
      type: "constant"
    }
  }
}
layer {
  name: "loss"
  type: "SoftmaxWithLoss"
  bottom: "ip2"
  bottom: "label"
  top: "loss"
}
layer {
  name: "accuracy"
  type: "Accuracy"
  bottom: "ip2"
  bottom: "label"
  top: "accuracy"
  include {
    phase: TEST
  }
}
I0303 21:38:37.440824   572 layer_factory.hpp:77] Creating layer data
I0303 21:38:37.444954   572 db_lmdb.cpp:35] Opened lmdb val_lmdb
I0303 21:38:37.445935   572 net.cpp:86] Creating Layer data
I0303 21:38:37.446017   572 net.cpp:382] data -> data
I0303 21:38:37.446030   572 net.cpp:382] data -> label
I0303 21:38:37.446039   572 data_transformer.cpp:25] Loading mean file from: mean.binaryproto
I0303 21:38:37.449307   572 data_layer.cpp:45] output data size: 20,1,50,50
I0303 21:38:37.449997   572 net.cpp:124] Setting up data
I0303 21:38:37.450109   572 net.cpp:131] Top shape: 20 1 50 50 (50000)
I0303 21:38:37.450124   572 net.cpp:131] Top shape: 20 (20)
I0303 21:38:37.450129   572 net.cpp:139] Memory required for data: 200080
I0303 21:38:37.450456   572 layer_factory.hpp:77] Creating layer label_data_1_split
I0303 21:38:37.450474   572 net.cpp:86] Creating Layer label_data_1_split
I0303 21:38:37.450479   572 net.cpp:408] label_data_1_split <- label
I0303 21:38:37.450485   572 net.cpp:382] label_data_1_split -> label_data_1_split_0
I0303 21:38:37.450664   572 net.cpp:382] label_data_1_split -> label_data_1_split_1
I0303 21:38:37.450691   572 net.cpp:124] Setting up label_data_1_split
I0303 21:38:37.450701   572 net.cpp:131] Top shape: 20 (20)
I0303 21:38:37.450706   572 net.cpp:131] Top shape: 20 (20)
I0303 21:38:37.450712   572 net.cpp:139] Memory required for data: 200240
I0303 21:38:37.450716   572 layer_factory.hpp:77] Creating layer conv1
I0303 21:38:37.450736   572 net.cpp:86] Creating Layer conv1
I0303 21:38:37.450740   572 net.cpp:408] conv1 <- data
I0303 21:38:37.450747   572 net.cpp:382] conv1 -> conv1
I0303 21:38:37.450973   572 net.cpp:124] Setting up conv1
I0303 21:38:37.451059   572 net.cpp:131] Top shape: 20 20 46 46 (846400)
I0303 21:38:37.451092   572 net.cpp:139] Memory required for data: 3585840
I0303 21:38:37.451474   572 layer_factory.hpp:77] Creating layer pool1
I0303 21:38:37.451611   572 net.cpp:86] Creating Layer pool1
I0303 21:38:37.451715   572 net.cpp:408] pool1 <- conv1
I0303 21:38:37.451750   572 net.cpp:382] pool1 -> pool1
I0303 21:38:37.451851   572 net.cpp:124] Setting up pool1
I0303 21:38:37.451942   572 net.cpp:131] Top shape: 20 20 23 23 (211600)
I0303 21:38:37.451970   572 net.cpp:139] Memory required for data: 4432240
I0303 21:38:37.451977   572 layer_factory.hpp:77] Creating layer conv2
I0303 21:38:37.452136   572 net.cpp:86] Creating Layer conv2
I0303 21:38:37.452188   572 net.cpp:408] conv2 <- pool1
I0303 21:38:37.452208   572 net.cpp:382] conv2 -> conv2
I0303 21:38:37.452965   572 net.cpp:124] Setting up conv2
I0303 21:38:37.452992   572 net.cpp:131] Top shape: 20 50 19 19 (361000)
I0303 21:38:37.452998   572 net.cpp:139] Memory required for data: 5876240
I0303 21:38:37.453009   572 layer_factory.hpp:77] Creating layer pool2
I0303 21:38:37.453071   572 net.cpp:86] Creating Layer pool2
I0303 21:38:37.453083   572 net.cpp:408] pool2 <- conv2
I0303 21:38:37.453162   572 net.cpp:382] pool2 -> pool2
I0303 21:38:37.453183   572 net.cpp:124] Setting up pool2
I0303 21:38:37.453189   572 net.cpp:131] Top shape: 20 50 10 10 (100000)
I0303 21:38:37.453192   572 net.cpp:139] Memory required for data: 6276240
I0303 21:38:37.453196   572 layer_factory.hpp:77] Creating layer ip1
I0303 21:38:37.453202   572 net.cpp:86] Creating Layer ip1
I0303 21:38:37.453207   572 net.cpp:408] ip1 <- pool2
I0303 21:38:37.453392   572 net.cpp:382] ip1 -> ip1
I0303 21:38:37.470320   572 net.cpp:124] Setting up ip1
I0303 21:38:37.470376   572 net.cpp:131] Top shape: 20 500 (10000)
I0303 21:38:37.470382   572 net.cpp:139] Memory required for data: 6316240
I0303 21:38:37.470402   572 layer_factory.hpp:77] Creating layer relu1
I0303 21:38:37.470414   572 net.cpp:86] Creating Layer relu1
I0303 21:38:37.470419   572 net.cpp:408] relu1 <- ip1
I0303 21:38:37.470428   572 net.cpp:369] relu1 -> ip1 (in-place)
I0303 21:38:37.470505   572 net.cpp:124] Setting up relu1
I0303 21:38:37.470546   572 net.cpp:131] Top shape: 20 500 (10000)
I0303 21:38:37.470588   572 net.cpp:139] Memory required for data: 6356240
I0303 21:38:37.470595   572 layer_factory.hpp:77] Creating layer drop1
I0303 21:38:37.470613   572 net.cpp:86] Creating Layer drop1
I0303 21:38:37.470619   572 net.cpp:408] drop1 <- ip1
I0303 21:38:37.470628   572 net.cpp:369] drop1 -> ip1 (in-place)
I0303 21:38:37.470641   572 net.cpp:124] Setting up drop1
I0303 21:38:37.470685   572 net.cpp:131] Top shape: 20 500 (10000)
I0303 21:38:37.470692   572 net.cpp:139] Memory required for data: 6396240
I0303 21:38:37.470698   572 layer_factory.hpp:77] Creating layer ip2
I0303 21:38:37.470716   572 net.cpp:86] Creating Layer ip2
I0303 21:38:37.470721   572 net.cpp:408] ip2 <- ip1
I0303 21:38:37.470985   572 net.cpp:382] ip2 -> ip2
I0303 21:38:37.471021   572 net.cpp:124] Setting up ip2
I0303 21:38:37.471067   572 net.cpp:131] Top shape: 20 2 (40)
I0303 21:38:37.471072   572 net.cpp:139] Memory required for data: 6396400
I0303 21:38:37.471079   572 layer_factory.hpp:77] Creating layer ip2_ip2_0_split
I0303 21:38:37.471086   572 net.cpp:86] Creating Layer ip2_ip2_0_split
I0303 21:38:37.471222   572 net.cpp:408] ip2_ip2_0_split <- ip2
I0303 21:38:37.471238   572 net.cpp:382] ip2_ip2_0_split -> ip2_ip2_0_split_0
I0303 21:38:37.471251   572 net.cpp:382] ip2_ip2_0_split -> ip2_ip2_0_split_1
I0303 21:38:37.471479   572 net.cpp:124] Setting up ip2_ip2_0_split
I0303 21:38:37.471493   572 net.cpp:131] Top shape: 20 2 (40)
I0303 21:38:37.471496   572 net.cpp:131] Top shape: 20 2 (40)
I0303 21:38:37.471498   572 net.cpp:139] Memory required for data: 6396720
I0303 21:38:37.471501   572 layer_factory.hpp:77] Creating layer loss
I0303 21:38:37.471545   572 net.cpp:86] Creating Layer loss
I0303 21:38:37.471573   572 net.cpp:408] loss <- ip2_ip2_0_split_0
I0303 21:38:37.471665   572 net.cpp:408] loss <- label_data_1_split_0
I0303 21:38:37.471680   572 net.cpp:382] loss -> loss
…
