…
I0314 00:19:24.093472 2994656192 net.cpp:294] The NetState phase (0) differed from the phase (1) specified by a rule in layer accuracy
I0314 00:19:24.093477 2994656192 net.cpp:51] Initializing net from parameters: 
name: "LeNet"
state {
  phase: TRAIN
  level: 0
  stage: ""
}
layer {
  name: "data"
  type: "Data"
  top: "data"
  top: "label"
  include {
    phase: TRAIN
  }
  transform_param {
    scale: 0.00390625
    mirror: false
    mean_file: "mean.binaryproto"
  }
  data_param {
    source: "train_lmdb"
    batch_size: 256
    backend: LMDB
  }
}
layer {
  name: "conv1"
  type: "Convolution"
  bottom: "data"
  top: "conv1"
  param {
    lr_mult: 1
  }
  param {
    lr_mult: 2
  }
  convolution_param {
    num_output: 20
    kernel_size: 5
    stride: 1
    weight_filler {
      type: "xavier"
    }
    bias_filler {
      type: "constant"
    }
  }
}
layer {
  name: "pool1"
  type: "Pooling"
  bottom: "conv1"
  top: "pool1"
  pooling_param {
    pool: MAX
    kernel_size: 2
    stride: 2
  }
}
layer {
  name: "conv2"
  type: "Convolution"
  bottom: "pool1"
  top: "conv2"
  param {
    lr_mult: 1
  }
  param {
    lr_mult: 2
  }
  convolution_param {
    num_output: 50
    kernel_size: 5
    stride: 1
    weight_filler {
      type: "xavier"
    }
    bias_filler {
      type: "constant"
    }
  }
}
layer {
  name: "pool2"
  type: "Pooling"
  bottom: "conv2"
  top: "pool2"
  pooling_param {
    pool: MAX
    kernel_size: 2
    stride: 2
  }
}
layer {
  name: "ip1"
  type: "InnerProduct"
  bottom: "pool2"
  top: "ip1"
  param {
    lr_mult: 1
  }
  param {
    lr_mult: 2
  }
  inner_product_param {
    num_output: 500
    weight_filler {
      type: "xavier"
    }
    bias_filler {
      type: "constant"
    }
  }
}
layer {
  name: "relu1"
  type: "ReLU"
  bottom: "ip1"
  top: "ip1"
}
layer {
  name: "drop1"
  type: "Dropout"
  bottom: "ip1"
  top: "ip1"
  dropout_param {
    dropout_ratio: 0.5
  }
}
layer {
  name: "ip2"
  type: "InnerProduct"
  bottom: "ip1"
  top: "ip2"
  param {
    lr_mult: 1
  }
  param {
    lr_mult: 2
  }
  inner_product_param {
    num_output: 2
    weight_filler {
      type: "xavier"
    }
    bias_filler {
      type: "constant"
    }
  }
}
layer {
  name: "loss"
  type: "SoftmaxWithLoss"
  bottom: "ip2"
  bottom: "label"
  top: "loss"
}
I0314 00:19:24.093689 2994656192 layer_factory.hpp:77] Creating layer data
I0314 00:19:24.094123 2994656192 db_lmdb.cpp:35] Opened lmdb train_lmdb
I0314 00:19:24.094189 2994656192 net.cpp:84] Creating Layer data
I0314 00:19:24.094199 2994656192 net.cpp:380] data -> data
I0314 00:19:24.094215 2994656192 net.cpp:380] data -> label
I0314 00:19:24.094233 2994656192 data_transformer.cpp:25] Loading mean file from: mean.binaryproto
I0314 00:19:24.094324 2994656192 data_layer.cpp:45] output data size: 256,1,32,32
I0314 00:19:24.102861 2994656192 net.cpp:122] Setting up data
I0314 00:19:24.102881 2994656192 net.cpp:129] Top shape: 256 1 32 32 (262144)
I0314 00:19:24.102890 2994656192 net.cpp:129] Top shape: 256 (256)
I0314 00:19:24.102901 2994656192 net.cpp:137] Memory required for data: 1049600
I0314 00:19:24.102910 2994656192 layer_factory.hpp:77] Creating layer conv1
I0314 00:19:24.102921 2994656192 net.cpp:84] Creating Layer conv1
I0314 00:19:24.102927 2994656192 net.cpp:406] conv1 <- data
I0314 00:19:24.102938 2994656192 net.cpp:380] conv1 -> conv1
I0314 00:19:24.103018 2994656192 net.cpp:122] Setting up conv1
I0314 00:19:24.103025 2994656192 net.cpp:129] Top shape: 256 20 28 28 (4014080)
I0314 00:19:24.103055 2994656192 net.cpp:137] Memory required for data: 17105920
I0314 00:19:24.103063 2994656192 layer_factory.hpp:77] Creating layer pool1
I0314 00:19:24.103070 2994656192 net.cpp:84] Creating Layer pool1
I0314 00:19:24.103076 2994656192 net.cpp:406] pool1 <- conv1
I0314 00:19:24.103081 2994656192 net.cpp:380] pool1 -> pool1
I0314 00:19:24.103092 2994656192 net.cpp:122] Setting up pool1
I0314 00:19:24.103098 2994656192 net.cpp:129] Top shape: 256 20 14 14 (1003520)
I0314 00:19:24.103103 2994656192 net.cpp:137] Memory required for data: 21120000
I0314 00:19:24.103108 2994656192 layer_factory.hpp:77] Creating layer conv2
I0314 00:19:24.103118 2994656192 net.cpp:84] Creating Layer conv2
I0314 00:19:24.103123 2994656192 net.cpp:406] conv2 <- pool1
I0314 00:19:24.103129 2994656192 net.cpp:380] conv2 -> conv2
I0314 00:19:24.103437 2994656192 net.cpp:122] Setting up conv2
I0314 00:19:24.103466 2994656192 net.cpp:129] Top shape: 256 50 10 10 (1280000)
I0314 00:19:24.103473 2994656192 net.cpp:137] Memory required for data: 26240000
I0314 00:19:24.103480 2994656192 layer_factory.hpp:77] Creating layer pool2
I0314 00:19:24.103488 2994656192 net.cpp:84] Creating Layer pool2
I0314 00:19:24.103493 2994656192 net.cpp:406] pool2 <- conv2
I0314 00:19:24.103503 2994656192 net.cpp:380] pool2 -> pool2
I0314 00:19:24.103516 2994656192 net.cpp:122] Setting up pool2
I0314 00:19:24.103521 2994656192 net.cpp:129] Top shape: 256 50 5 5 (320000)
I0314 00:19:24.103526 2994656192 net.cpp:137] Memory required for data: 27520000
I0314 00:19:24.103530 2994656192 layer_factory.hpp:77] Creating layer ip1
I0314 00:19:24.103536 2994656192 net.cpp:84] Creating Layer ip1
I0314 00:19:24.103540 2994656192 net.cpp:406] ip1 <- pool2
I0314 00:19:24.103546 2994656192 net.cpp:380] ip1 -> ip1
I0314 00:19:24.110390 2994656192 net.cpp:122] Setting up ip1
I0314 00:19:24.110407 2994656192 net.cpp:129] Top shape: 256 500 (128000)
I0314 00:19:24.110414 2994656192 net.cpp:137] Memory required for data: 28032000
I0314 00:19:24.110422 2994656192 layer_factory.hpp:77] Creating layer relu1
I0314 00:19:24.110435 2994656192 net.cpp:84] Creating Layer relu1
I0314 00:19:24.110440 2994656192 net.cpp:406] relu1 <- ip1
I0314 00:19:24.110445 2994656192 net.cpp:367] relu1 -> ip1 (in-place)
I0314 00:19:24.110455 2994656192 net.cpp:122] Setting up relu1
I0314 00:19:24.110458 2994656192 net.cpp:129] Top shape: 256 500 (128000)
I0314 00:19:24.110463 2994656192 net.cpp:137] Memory required for data: 28544000
I0314 00:19:24.110468 2994656192 layer_factory.hpp:77] Creating layer drop1
I0314 00:19:24.110473 2994656192 net.cpp:84] Creating Layer drop1
I0314 00:19:24.110477 2994656192 net.cpp:406] drop1 <- ip1
I0314 00:19:24.110481 2994656192 net.cpp:367] drop1 -> ip1 (in-place)
I0314 00:19:24.110492 2994656192 net.cpp:122] Setting up drop1
I0314 00:19:24.110496 2994656192 net.cpp:129] Top shape: 256 500 (128000)
I0314 00:19:24.110501 2994656192 net.cpp:137] Memory required for data: 29056000
I0314 00:19:24.110505 2994656192 layer_factory.hpp:77] Creating layer ip2
I0314 00:19:24.110532 2994656192 net.cpp:84] Creating Layer ip2
I0314 00:19:24.110538 2994656192 net.cpp:406] ip2 <- ip1
I0314 00:19:24.110543 2994656192 net.cpp:380] ip2 -> ip2
I0314 00:19:24.110589 2994656192 net.cpp:122] Setting up ip2
I0314 00:19:24.110595 2994656192 net.cpp:129] Top shape: 256 2 (512)
I0314 00:19:24.110600 2994656192 net.cpp:137] Memory required for data: 29058048
I0314 00:19:24.110605 2994656192 layer_factory.hpp:77] Creating layer loss
I0314 00:19:24.110612 2994656192 net.cpp:84] Creating Layer loss
I0314 00:19:24.110617 2994656192 net.cpp:406] loss <- ip2
I0314 00:19:24.110625 2994656192 net.cpp:406] loss <- label
I0314 00:19:24.110637 2994656192 net.cpp:380] loss -> loss
…
I0314 00:19:24.111130 2994656192 solver.cpp:173] Creating test net (#0) specified by net file: model/train_val_feature_scaled.prototxt
I0314 00:19:24.111156 2994656192 net.cpp:294] The NetState phase (1) differed from the phase (0) specified by a rule in layer data
I0314 00:19:24.111167 2994656192 net.cpp:51] Initializing net from parameters: 
name: "LeNet"
state {
  phase: TEST
}
layer {
  name: "data"
  type: "Data"
  top: "data"
  top: "label"
  include {
    phase: TEST
  }
  transform_param {
    scale: 0.00390625
    mirror: false
    mean_file: "mean.binaryproto"
  }
  data_param {
    source: "val_lmdb"
    batch_size: 256
    backend: LMDB
  }
}
layer {
  name: "conv1"
  type: "Convolution"
  bottom: "data"
  top: "conv1"
  param {
    lr_mult: 1
  }
  param {
    lr_mult: 2
  }
  convolution_param {
    num_output: 20
    kernel_size: 5
    stride: 1
    weight_filler {
      type: "xavier"
    }
    bias_filler {
      type: "constant"
    }
  }
}
layer {
  name: "pool1"
  type: "Pooling"
  bottom: "conv1"
  top: "pool1"
  pooling_param {
    pool: MAX
    kernel_size: 2
    stride: 2
  }
}
layer {
  name: "conv2"
  type: "Convolution"
  bottom: "pool1"
  top: "conv2"
  param {
    lr_mult: 1
  }
  param {
    lr_mult: 2
  }
  convolution_param {
    num_output: 50
    kernel_size: 5
    stride: 1
    weight_filler {
      type: "xavier"
    }
    bias_filler {
      type: "constant"
    }
  }
}
layer {
  name: "pool2"
  type: "Pooling"
  bottom: "conv2"
  top: "pool2"
  pooling_param {
    pool: MAX
    kernel_size: 2
    stride: 2
  }
}
layer {
  name: "ip1"
  type: "InnerProduct"
  bottom: "pool2"
  top: "ip1"
  param {
    lr_mult: 1
  }
  param {
    lr_mult: 2
  }
  inner_product_param {
    num_output: 500
    weight_filler {
      type: "xavier"
    }
    bias_filler {
      type: "constant"
    }
  }
}
layer {
  name: "relu1"
  type: "ReLU"
  bottom: "ip1"
  top: "ip1"
}
layer {
  name: "drop1"
  type: "Dropout"
  bottom: "ip1"
  top: "ip1"
  dropout_param {
    dropout_ratio: 0.5
  }
}
layer {
  name: "ip2"
  type: "InnerProduct"
  bottom: "ip1"
  top: "ip2"
  param {
    lr_mult: 1
  }
  param {
    lr_mult: 2
  }
  inner_product_param {
    num_output: 2
    weight_filler {
      type: "xavier"
    }
    bias_filler {
      type: "constant"
    }
  }
}
layer {
  name: "loss"
  type: "SoftmaxWithLoss"
  bottom: "ip2"
  bottom: "label"
  top: "loss"
}
layer {
  name: "accuracy"
  type: "Accuracy"
  bottom: "ip2"
  bottom: "label"
  top: "accuracy"
  include {
    phase: TEST
  }
}
I0314 00:19:24.111289 2994656192 layer_factory.hpp:77] Creating layer data
I0314 00:19:24.111343 2994656192 db_lmdb.cpp:35] Opened lmdb val_lmdb
I0314 00:19:24.111366 2994656192 net.cpp:84] Creating Layer data
I0314 00:19:24.111371 2994656192 net.cpp:380] data -> data
I0314 00:19:24.111379 2994656192 net.cpp:380] data -> label
I0314 00:19:24.111387 2994656192 data_transformer.cpp:25] Loading mean file from: mean.binaryproto
I0314 00:19:24.111418 2994656192 data_layer.cpp:45] output data size: 256,1,32,32
I0314 00:19:24.113456 2994656192 net.cpp:122] Setting up data
I0314 00:19:24.113466 2994656192 net.cpp:129] Top shape: 256 1 32 32 (262144)
I0314 00:19:24.113471 2994656192 net.cpp:129] Top shape: 256 (256)
I0314 00:19:24.113476 2994656192 net.cpp:137] Memory required for data: 1049600
I0314 00:19:24.113481 2994656192 layer_factory.hpp:77] Creating layer label_data_1_split
I0314 00:19:24.113487 2994656192 net.cpp:84] Creating Layer label_data_1_split
I0314 00:19:24.113492 2994656192 net.cpp:406] label_data_1_split <- label
I0314 00:19:24.113497 2994656192 net.cpp:380] label_data_1_split -> label_data_1_split_0
I0314 00:19:24.113503 2994656192 net.cpp:380] label_data_1_split -> label_data_1_split_1
I0314 00:19:24.113512 2994656192 net.cpp:122] Setting up label_data_1_split
I0314 00:19:24.113517 2994656192 net.cpp:129] Top shape: 256 (256)
I0314 00:19:24.113520 2994656192 net.cpp:129] Top shape: 256 (256)
I0314 00:19:24.113524 2994656192 net.cpp:137] Memory required for data: 1051648
I0314 00:19:24.113528 2994656192 layer_factory.hpp:77] Creating layer conv1
I0314 00:19:24.113538 2994656192 net.cpp:84] Creating Layer conv1
I0314 00:19:24.113543 2994656192 net.cpp:406] conv1 <- data
I0314 00:19:24.113548 2994656192 net.cpp:380] conv1 -> conv1
I0314 00:19:24.113596 2994656192 net.cpp:122] Setting up conv1
I0314 00:19:24.113610 2994656192 net.cpp:129] Top shape: 256 20 28 28 (4014080)
I0314 00:19:24.113620 2994656192 net.cpp:137] Memory required for data: 17107968
I0314 00:19:24.113636 2994656192 layer_factory.hpp:77] Creating layer pool1
I0314 00:19:24.113687 2994656192 net.cpp:84] Creating Layer pool1
I0314 00:19:24.113692 2994656192 net.cpp:406] pool1 <- conv1
I0314 00:19:24.113698 2994656192 net.cpp:380] pool1 -> pool1
I0314 00:19:24.113709 2994656192 net.cpp:122] Setting up pool1
I0314 00:19:24.113718 2994656192 net.cpp:129] Top shape: 256 20 14 14 (1003520)
I0314 00:19:24.113729 2994656192 net.cpp:137] Memory required for data: 21122048
I0314 00:19:24.113732 2994656192 layer_factory.hpp:77] Creating layer conv2
I0314 00:19:24.113742 2994656192 net.cpp:84] Creating Layer conv2
I0314 00:19:24.113747 2994656192 net.cpp:406] conv2 <- pool1
I0314 00:19:24.113754 2994656192 net.cpp:380] conv2 -> conv2
I0314 00:19:24.114020 2994656192 net.cpp:122] Setting up conv2
I0314 00:19:24.114028 2994656192 net.cpp:129] Top shape: 256 50 10 10 (1280000)
I0314 00:19:24.114033 2994656192 net.cpp:137] Memory required for data: 26242048
I0314 00:19:24.114040 2994656192 layer_factory.hpp:77] Creating layer pool2
I0314 00:19:24.114047 2994656192 net.cpp:84] Creating Layer pool2
I0314 00:19:24.114050 2994656192 net.cpp:406] pool2 <- conv2
I0314 00:19:24.114055 2994656192 net.cpp:380] pool2 -> pool2
I0314 00:19:24.114063 2994656192 net.cpp:122] Setting up pool2
I0314 00:19:24.114068 2994656192 net.cpp:129] Top shape: 256 50 5 5 (320000)
I0314 00:19:24.114078 2994656192 net.cpp:137] Memory required for data: 27522048
I0314 00:19:24.114081 2994656192 layer_factory.hpp:77] Creating layer ip1
I0314 00:19:24.114087 2994656192 net.cpp:84] Creating Layer ip1
I0314 00:19:24.114091 2994656192 net.cpp:406] ip1 <- pool2
I0314 00:19:24.114104 2994656192 net.cpp:380] ip1 -> ip1
I0314 00:19:24.119989 2994656192 net.cpp:122] Setting up ip1
I0314 00:19:24.120007 2994656192 net.cpp:129] Top shape: 256 500 (128000)
I0314 00:19:24.120013 2994656192 net.cpp:137] Memory required for data: 28034048
I0314 00:19:24.120021 2994656192 layer_factory.hpp:77] Creating layer relu1
I0314 00:19:24.120028 2994656192 net.cpp:84] Creating Layer relu1
I0314 00:19:24.120033 2994656192 net.cpp:406] relu1 <- ip1
I0314 00:19:24.120038 2994656192 net.cpp:367] relu1 -> ip1 (in-place)
I0314 00:19:24.120072 2994656192 net.cpp:122] Setting up relu1
I0314 00:19:24.120091 2994656192 net.cpp:129] Top shape: 256 500 (128000)
I0314 00:19:24.120097 2994656192 net.cpp:137] Memory required for data: 28546048
I0314 00:19:24.120103 2994656192 layer_factory.hpp:77] Creating layer drop1
I0314 00:19:24.120116 2994656192 net.cpp:84] Creating Layer drop1
I0314 00:19:24.120123 2994656192 net.cpp:406] drop1 <- ip1
I0314 00:19:24.120154 2994656192 net.cpp:367] drop1 -> ip1 (in-place)
I0314 00:19:24.120162 2994656192 net.cpp:122] Setting up drop1
I0314 00:19:24.120165 2994656192 net.cpp:129] Top shape: 256 500 (128000)
I0314 00:19:24.120170 2994656192 net.cpp:137] Memory required for data: 29058048
I0314 00:19:24.120175 2994656192 layer_factory.hpp:77] Creating layer ip2
I0314 00:19:24.120182 2994656192 net.cpp:84] Creating Layer ip2
I0314 00:19:24.120185 2994656192 net.cpp:406] ip2 <- ip1
I0314 00:19:24.120190 2994656192 net.cpp:380] ip2 -> ip2
I0314 00:19:24.120225 2994656192 net.cpp:122] Setting up ip2
I0314 00:19:24.120231 2994656192 net.cpp:129] Top shape: 256 2 (512)
I0314 00:19:24.120236 2994656192 net.cpp:137] Memory required for data: 29060096
I0314 00:19:24.120242 2994656192 layer_factory.hpp:77] Creating layer ip2_ip2_0_split
I0314 00:19:24.120249 2994656192 net.cpp:84] Creating Layer ip2_ip2_0_split
I0314 00:19:24.120254 2994656192 net.cpp:406] ip2_ip2_0_split <- ip2
I0314 00:19:24.120261 2994656192 net.cpp:380] ip2_ip2_0_split -> ip2_ip2_0_split_0
I0314 00:19:24.120266 2994656192 net.cpp:380] ip2_ip2_0_split -> ip2_ip2_0_split_1
I0314 00:19:24.120272 2994656192 net.cpp:122] Setting up ip2_ip2_0_split
I0314 00:19:24.120277 2994656192 net.cpp:129] Top shape: 256 2 (512)
I0314 00:19:24.120282 2994656192 net.cpp:129] Top shape: 256 2 (512)
I0314 00:19:24.120286 2994656192 net.cpp:137] Memory required for data: 29064192
I0314 00:19:24.120291 2994656192 layer_factory.hpp:77] Creating layer loss
I0314 00:19:24.120296 2994656192 net.cpp:84] Creating Layer loss
I0314 00:19:24.120301 2994656192 net.cpp:406] loss <- ip2_ip2_0_split_0
I0314 00:19:24.120306 2994656192 net.cpp:406] loss <- label_data_1_split_0
I0314 00:19:24.120311 2994656192 net.cpp:380] loss -> loss
…
